model/keypoint_classifier/keypoint_classifier.tflite (tflite, 7512 bytes, 6 tensors)

sequential/dense/BiasAdd/ReadVariableOp f4 [20]
0	0xbfd7e958	-1.6868086
1	0x3cc3a03b	0.023880115
2	0x3e10c4fb	0.14137642
3	0x3f30d92e	0.6908139
4	0x3f98ac92	1.1927664
5	0xbf9a391d	-1.204868
6	0xbd535cf7	-0.05160233
7	0xbf643141	-0.89137655
8	0xbff01fce	-1.8759706
9	0xbf9179c3	-1.1365284
10	0xbdafe562	-0.08588673
11	0xbfb5df61	-1.4208795
12	0xbe5fb4b1	-0.21846272
13	0xbf97193b	-1.1804575
14	0xbf8a121d	-1.0786778
15	0xbf490640	-0.7852516
16	0xbfae9434	-1.3638978
17	0xbef52f4a	-0.4788764
18	0x3d878c96	0.066186115
19	0xbf9e5d21	-1.2372171

sequential/dense_2/BiasAdd/ReadVariableOp f4 [26]
0	0xbf10666a	-0.5640627
1	0x3e0fa2f7	0.1402701
2	0xc01de92a	-2.4673562
3	0x3f21adb2	0.63155663
4	0x3f98a146	1.1924217
5	0xbf5920d3	-0.8481571
6	0xbff7534f	-1.9322299
7	0xc01011cd	-2.2510865
8	0x3fbec0c0	1.4902573
9	0xbe9be1b0	-0.30445623
10	0x3ebc1da5	0.36741367
11	0x401afd25	2.4217007
12	0xbec12bcd	-0.3772873
13	0xbf5b5e71	-0.8569098
14	0xc042107b	-3.032256
15	0x3f12c3e3	0.5733015
16	0xbf30c9a6	-0.6905769
17	0x3cc4e33e	0.024034139
18	0xbea693b4	-0.32534564
19	0x3e16a027	0.14709531
20	0x3e2ba42b	0.16761844
21	0x3f1952d2	0.59892
22	0x3f419295	0.7561429
23	0x3fac6917	1.3469571
24	0xbf9fe83d	-1.2492748
25	0xbf805196	-1.0024898

sequential/dense_1/BiasAdd/ReadVariableOp f4 [10]
0	0x3fddb30f	1.7320269
1	0x4026f219	2.6085265
2	0x3ff34ff5	1.9008776
3	0x3f13aa0f	0.57681364
4	0xbe9a9999	-0.3019531
5	0x3fc37f20	1.527317
6	0x3df7272a	0.12068017
7	0x3fff4d45	1.9945456
8	0xbee302cb	-0.44338068
9	0x3fa099aa	1.2546895

sequential/dense/MatMul f4 [20, 42]
0	0x3da60e10	0.08108151
1	0xbe4f9254	-0.20270663
2	0xbdbe38be	-0.092881665
3	0xbf03744b	-0.51349324
4	0x3d312bfc	0.043254837
5	0xbe213652	-0.15743378
6	0xbc90f142	-0.017693166
7	0xbe88f68b	-0.26750597
8	0xbe89b000	-0.2689209
9	0xc007e3b5	-2.1232731
10	0xbe077583	-0.13228421
11	0xbb0c8e32	-0.002144706
12	0xbe1351ba	-0.14386645
13	0xbad3c98e	-0.001615809
14	0xbea3f5bd	-0.3202342
15	0x3cbf3a4b	0.023343226
16	0xbec3aab5	-0.38216177
17	0x3d5db791	0.05413014
18	0xbf3ef386	-0.7459034
19	0x3c9eebc1	0.019399526
20	0x3ed852ed	0.42250767
21	0xbd0b3d86	-0.03399422
22	0x3f3f60d6	0.74757135
23	0xba72a366	-0.00092559156
24	0x3f629101	0.8850251
25	0x3c5a327b	0.0133177
26	0xbea592f2	-0.32338673
27	0x3b050c4e	0.0020301524
28	0xbd1a6e0d	-0.03770261
29	0xbce527fe	-0.027973171
30	0xbece345a	-0.40274316
31	0x3d28ae58	0.041181892
32	0xbf0a3547	-0.53987545
33	0x3d5b72df	0.053576346
34	0xbde671b4	-0.11252156
35	0x3cfc5688	0.03080298
36	0xbde5598a	-0.11198719
37	0xbc81c252	-0.01583973
38	0x3e801016	0.25012273
39	0xbd1f965f	-0.038961764
40	0x3f70b7c6	0.94030416
41	0x3c4a5683	0.012349728
42	0xbb020a00	-0.0019842386
43	0xbe0879ff	-0.13327788
44	0x3f6a79b0	0.9159193
45	0x3f4a41cf	0.79006666
46	0x3f06888a	0.5255209
47	0x3f3be6c8	0.7339902
48	0x3e1b6873	0.15176563
49	0x3f2e26dd	0.6802805
50	0x3b8e2e2c	0.004339
51	0x3f2ead17	0.68232864
52	0x3dad77ad	0.08470092
53	0xbf6ccf6b	-0.92503995
54	0xbd412795	-0.04715689
55	0x3ed8d941	0.42353252
56	0xbd3b47c3	-0.045722734
57	0x3f3a8229	0.7285486
58	0xbd77cddd	-0.06049906
59	0x3fb00ddb	1.3754228
60	0x3e1ceaee	0.15323994
61	0xbf56a489	-0.8384481
62	0xbccdd227	-0.025124623
63	0x3e1979e8	0.1498791
64	0xbe070479	-0.131853
65	0x3e935784	0.28777707
66	0xbe1c8d37	-0.15288244
67	0x3eaf624c	0.34254682
68	0x3e632530	0.22182155
69	0xbf8d39b8	-1.1033239
70	0x3d0a154e	0.033711724
71	0x3da4d6f1	0.08048809
72	0xbc5bf13a	-0.013424212
73	0x3cc73ace	0.024320032
74	0x3d6366d6	0.055517994
75	0xbca8c3a8	-0.020601109
76	0x3e1c7c50	0.15281796
77	0xbf84be00	-1.0370483
78	0x3c0765fd	0.008264062
79	0x3e299ab7	0.16562925
80	0xbe451bfc	-0.19248956
81	0x3edcb059	0.43103293
82	0xbe5f9a9b	-0.21836321
83	0x3ecb2ff7	0.39685032
84	0x3e9bbfe6	0.30419844
85	0xbe664fb0	-0.22491336
86	0xbf2a8d1c	-0.66621566
87	0xbf8757d6	-1.057368
88	0xbe0e986a	-0.13925329
89	0xbf1b89bd	-0.60757047
90	0x3eb80685	0.35942474
91	0xbe8ea400	-0.27859497
92	0x3ef52fd5	0.47888055
93	0x3e3bf647	0.18355666
94	0xbf2e39a9	-0.6805673
95	0xbebd7e8d	-0.37010613
96	0xbdc2e279	-0.095158525
97	0xbd6d86f8	-0.057990044
98	0xbcb5221b	-0.02211099
99	0x3e29bcab	0.16575877
100	0x3cdb6520	0.026781619
101	0x3e746695	0.23867257
102	0x3dd3c61c	0.10340521
103	0xbe84ae33	-0.25914153
104	0x3e859846	0.26092738
105	0xbcfbd7db	-0.030742576
106	0x3e6138ad	0.21994276
107	0x3e1e20dd	0.15442224
108	0x3e861b41	0.26192668
109	0x3e800cf3	0.2500988
110	0x3f949068	1.1606569
111	0xbe35261e	-0.17690322
112	0x3e8e8aba	0.27840215
113	0x3e003bc5	0.125228
114	0xbee7a465	-0.4524261
115	0x3e863f49	0.26220158
116	0xbf73a633	-0.95175475
117	0x3eb16236	0.34645241
118	0x3f9cf61d	1.2262608
119	0xbdf1297f	-0.11775493
120	0x3eea2da0	0.45737934
121	0x3d76ae7f	0.060225006
122	0x3e543966	0.20725021
123	0x3ec9d99f	0.39423844
124	0x3e2e6c78	0.17033565
125	0x3ecfee3d	0.4061145
126	0x3db06504	0.08613017
127	0xbdb990c8	-0.09060818
128	0xbce83dbd	-0.028349752
129	0xbe26d406	-0.16291818
130	0x3e23d12d	0.15997763
131	0x3d8db211	0.06918729
132	0x3e8437bf	0.2582378
133	0x3df8b4ec	0.12143883
134	0x3d3587fc	0.044319138
135	0x3e142d6e	0.14470455
136	0xbdb8b0f0	-0.09018123
137	0xbca8c0c9	-0.02059974
138	0xbebe3db5	-0.37156454
139	0x3d71ab01	0.059000973
140	0xbf0d5f00	-0.55223083
141	0x3dd412a6	0.103551194
142	0xbf1324dc	-0.5747812
143	0x3dbc53e6	0.0919569
144	0x3f0c321a	0.5476395
145	0xbcee8d9c	-0.029120259
146	0x3f5bff17	0.8593611
147	0x3d31759d	0.043325055
148	0x3fad5214	1.3540673
149	0x3c652bd2	0.013987498
150	0x3fd0eeac	1.6322837
151	0x3d611c89	0.054958854
152	0x3f26fdf0	0.6523123
153	0x3c06a1e8	0.008217312
154	0x3e64874f	0.22317241
155	0x3e1b7471	0.15181138
156	0xbed0e1c9	-0.4079726
157	0x3e7393f5	0.2378691
158	0xbf5bd7c9	-0.85876137
159	0x3ea66a6c	0.32503068
160	0x3ed26245	0.410906
161	0x3d53af87	0.051681068
162	0x3ea2173b	0.31658348
163	0x3e2cb2fb	0.1686515
164	0x3e8e5ee8	0.27806783
165	0x3ebd6225	0.3698894
166	0x3ea9aa69	0.33137825
167	0x3edb2562	0.42801958
168	0x3c773480	0.015088201
169	0x3e3f7492	0.18696812
170	0xbdb31103	-0.08743479
171	0x3f7df3c5	0.9920009
172	0xbe42a6c6	-0.19008932
173	0x3f0d1a88	0.5511861
174	0xbe902e2f	-0.28160235
175	0x3ea8eff6	0.32995576
176	0xbe78cb38	-0.24296272
177	0x3e603a91	0.21897341
178	0x3d5d8328	0.05408016
179	0xbc9b5ac5	-0.01896418
180	0xbe1d8076	-0.15381035
181	0x3dcb93bf	0.0994029
182	0xbea11c29	-0.31466797
183	0x3d57d249	0.052690778
184	0xbe9b586e	-0.30340904
185	0x3c50c392	0.01274194
186	0x3df15fe6	0.11785869
187	0xbd059c65	-0.032619853
188	0x3d6af2fc	0.057360634
189	0x3de087e5	0.1096342
190	0xbcf06ef2	-0.029349778
191	0x3e8e6d6c	0.27817857
192	0xbe263cd1	-0.16234137
193	0x3ec78ef6	0.38976258
194	0xbea4980b	-0.3214725
195	0xbd9c9a42	-0.0764661
196	0xbeeb2c55	-0.4593226
197	0x3dbe2620	0.092846155
198	0xbeadf60b	-0.33976778
199	0x3e78a628	0.24282134
200	0xbec3f50c	-0.38272893
201	0x3eb02412	0.3440252
202	0xbf0d037c	-0.5508344
203	0xbd5271e7	-0.051378157
204	0xbeafbd4f	-0.34324118
205	0x3daba61a	0.08381291
206	0xbeeb051a	-0.4590233
207	0x3e3355f8	0.17513263
208	0xbf1dc42d	-0.61627465
209	0x3ddb3a76	0.1070451
210	0x3de4929c	0.11160776
211	0xbc971610	-0.018443137
212	0xbf6e3f5c	-0.9306543
213	0xbf201a51	-0.62540156
214	0xbecd92de	-0.40151113
215	0xbe93fd1a	-0.2890404
216	0x3e05799f	0.13034676
217	0xbde30817	-0.110855274
218	0x3eea8db0	0.45811224
219	0x3ade7d63	0.0016974624
220	0xbe421360	-0.18952703
221	0xbe7d5196	-0.24738154
222	0x3db6c492	0.089242116
223	0xbdbadc16	-0.09124009
224	0x3edc8397	0.43069145
225	0x3d3229ff	0.04349708
226	0x3f06fe41	0.5273171
227	0x3db000f6	0.08593933
228	0xbc3a9260	-0.011387438
229	0xbe68d895	-0.2273887
230	0xbf3f04de	-0.746168
231	0xbdfcb938	-0.12340015
232	0xbfa058c1	-1.2527086
233	0xbd35bb0c	-0.044367835
234	0xbf9544ef	-1.1661662
235	0x3a969dfd	0.0011491176
236	0x3f744aa1	0.95426375
237	0xbe84d38b	-0.25942644
238	0x3d03d30b	0.032183688
239	0xbe085cdd	-0.13316675
240	0xbf3ff10c	-0.74977183
241	0x3d10dcb0	0.035366714
242	0xbfb8f77b	-1.4450525
243	0x3d7fc3c4	0.062442556
244	0x3f5e821a	0.8691727
245	0xbe98277d	-0.29717627
246	0x3e59d341	0.21271993
247	0xbe37d5e6	-0.1795269
248	0xbea06525	-0.31327167
249	0xbd6221b1	-0.055207912
250	0xbef3095d	-0.4746808
251	0x3d32bbab	0.043636005
252	0x3d4030a8	0.046921402
253	0xbe8245f6	-0.25444
254	0x3f18ea86	0.59732854
255	0x3eb674d2	0.35636002

sequential/dense_1/MatMul f4 [10, 20]
0	0xbe82eb21	-0.25570014
1	0xbed02e9b	-0.40660557
2	0x3d8f095e	0.069842085
3	0xbfa718c1	-1.3054429
4	0xbdfe49d8	-0.12416428
5	0x3f684945	0.907368
6	0xbd38fa7f	-0.045160767
7	0x3d681e9e	0.056669824
8	0x3edf0e94	0.4356581
9	0x3e75551a	0.23958245
10	0xbef1a8a3	-0.47198972
11	0x3f47c79c	0.78038955
12	0xbeca111a	-0.39466172
13	0x3f76ef9a	0.9645935
14	0xbc91213b	-0.01771604
15	0x3faf7294	1.3706841
16	0x400da725	2.2133267
17	0x3f04735c	0.51738524
18	0xbfb42f43	-1.4076923
19	0x3e9d0604	0.30668652
20	0x3f08dc0e	0.53460777
21	0xbfcd399f	-1.603321
22	0xbe474642	-0.19460395
23	0xbe89b56c	-0.26896226
24	0xbe24966e	-0.1607301
25	0x3e341c4f	0.17588924
26	0xbe675380	-0.22590446
27	0xbfeea6d1	-1.8644658
28	0xbf03e665	-0.5152343
29	0x3e7aabd7	0.24479614
30	0xbe2b851e	-0.16749999
31	0x3f38770c	0.7205665
32	0xc09192be	-4.549163
33	0x3e2bb5b9	0.1676854
34	0xc0918708	-4.5477333
35	0xbf02533c	-0.50908256
36	0xbe5a2480	-0.21302986
37	0xc083f286	-4.123355
38	0xbfe496f3	-1.7858566
39	0x3e38da83	0.18052106
40	0x3fb237e8	1.3923311
41	0xbf60db4c	-0.8783462
42	0x3f89c227	1.0762376
43	0x3e393bbe	0.18089196
44	0xbf1a7171	-0.6032935
45	0x3f637a46	0.8885845
46	0xbe9fddea	-0.31223994
47	0x3e5fbcfa	0.21849433
48	0x3f67693f	0.9039497
49	0x3e8bddee	0.27317756
50	0xbddbf74d	-0.10740528
51	0x3d1ca814	0.03824623
52	0xbd34456c	-0.04401152
53	0xbc3104c1	-0.010804356
54	0x3f005ec8	0.50144625
55	0xbf9d31aa	-1.2280781
56	0xbf577012	-0.8415538
57	0xbef603be	-0.4804973
58	0x3e8cf56e	0.27530998
59	0x3ecd09de	0.4004659
60	0x3dc7167e	0.09721087
61	0xbf1064a8	-0.5640359
62	0x3f0c77fd	0.5487059
63	0x3f184dc1	0.59493643
64	0xc00c8c09	-2.196047
65	0xc016a5a8	-2.3538609
66	0x3f5307fb	0.8243405
67	0x3f3c95b4	0.7366593
68	0x3e8805f7	0.2656705
69	0xbfb3355c	-1.4000659
70	0xc034be6d	-2.8241227
71	0x3f57189d	0.8402193
72	0x3f469cdf	0.77583116
73	0xc00428a6	-2.064981
74	0x3f41d4fd	0.7571562
75	0xbf6630ee	-0.8991841
76	0xbdfb0778	-0.12257284
77	0x3f1905a5	0.5977424
78	0x3eda772a	0.4266904
79	0xbe902027	-0.2814953
80	0x3f9dfb9b	1.2342409
81	0x3ebc057c	0.36722934
82	0x3daff023	0.08590724
83	0x3f02c9c4	0.5108912
84	0x3ec5ebe1	0.38656524
85	0x3e86cfc0	0.26330376
86	0x3e880354	0.2656504
87	0xbee9a9bd	-0.45637313
88	0x3ee00f40	0.43761635
89	0x3ee8f73c	0.45501125
90	0x3ee6f829	0.45111206
91	0x4003dee7	2.0604799
92	0xbebe45bb	-0.37162575
93	0x3e187cc1	0.1489134
94	0x3e28ef1e	0.16497466
95	0x3db1a426	0.08673887
96	0x3fdea256	1.7393291
97	0x3d8023fb	0.06256863
98	0x3e450531	0.19240262
99	0x3ee80879	0.45318964
100	0xbde4d40b	-0.111732565
101	0xbe5be78b	-0.21475045
102	0x3e0110d3	0.12604074
103	0x3da8af05	0.08236507
104	0xbe1c3c29	-0.15257324
105	0x3e1c1e1f	0.15245865
106	0x3d8b1850	0.067917466
107	0xbdc05b9e	-0.093924746
108	0xc09865c3	-4.762422
109	0xc0803d82	-4.0075083
110	0xbbac83b0	-0.005264722
111	0x3e76676d	0.24062891
112	0xbdb2017f	-0.086916916
113	0xbd833033	-0.06405678
114	0xbda55d0f	-0.0807439
115	0x3d89f028	0.06735259
116	0xbe2b8d4f	-0.16753124
117	0x3d96eb9a	0.07369156
118	0xbd03e219	-0.032198045
119	0xc093b7bc	-4.6161785
120	0x3ff18249	1.8867885
121	0xbeae7ae8	-0.34078145
122	0x3dc7ffe4	0.09765604
123	0x3daf7cdd	0.08568738
124	0xbf016623	-0.50546473
125	0xbe73dd91	-0.2381499
126	0x3e9f1aa9	0.31075028
127	0x3e229281	0.158762
128	0x3fa70bd3	1.3050483
129	0x3f66b8b2	0.9012557
130	0xbf4d2487	-0.8013386
131	0x3d8168be	0.06318806
132	0x3dab2e07	0.083583884
133	0x3fab03b4	1.3360505
134	0x3f6789d3	0.9044468
135	0x3fd484d1	1.6603032
136	0xbe4ff7fd	-0.20309444
137	0xbea689b3	-0.3252693
138	0x3d9c3059	0.07626409
139	0x3f8296bb	1.0202249
140	0x3f03f0ce	0.51539314
141	0xc0016325	-2.0216763
142	0x3c3cde55	0.011527617
143	0xbe50efc0	-0.20403957
144	0xc0109707	-2.259218
145	0xbc603993	-0.013685602
146	0x3f094967	0.5362763
147	0x3f55f866	0.8358215
148	0x3e96b263	0.29432973
149	0xbc877c30	-0.01653871
150	0xbef6d29d	-0.4820756
151	0x3fc105c5	1.5079886
152	0x3f4157c5	0.7552455
153	0x3d9318e0	0.07182479
154	0x3f6aad8a	0.9167105
155	0xbdca10cf	-0.09866487
156	0x3fb29068	1.3950319
157	0x3f8022b0	1.0010586
158	0xbee32d31	-0.44370416
159	0x3dcffd00	0.10155678
160	0xbee48d45	-0.4463903
161	0x3f5e4e96	0.8683866
162	0x3f6541c5	0.8955348
163	0x3f46e3f9	0.7769161
164	0x3f6a6f55	0.9157613
165	0x3f5079df	0.8143596
166	0x3f4476eb	0.76743954
167	0x3f46039c	0.7734926
168	0x3f093050	0.53589344
169	0x3ea0004a	0.3125022
170	0xbfd728f3	-1.6809372
171	0x3e64e946	0.22354612
172	0x3fabd2fc	1.3423762
173	0x3f06282a	0.52405035
174	0x3e457b44	0.19285303
175	0x3f22d2f6	0.6360315
176	0xbe29dc01	-0.16587831
177	0x3f257176	0.6462625
178	0x3f3200d1	0.69532496
179	0x3ebef72a	0.37297946
180	0x3f0503ec	0.5195911
181	0xbf8cd780	-1.1003265
182	0xbf0891d0	-0.5334749
183	0xbff577d9	-1.91772
184	0x3dfd7810	0.12376416
185	0x3f45024d	0.76956636
186	0xbf9f0735	-1.2424074
187	0x3e536ba7	0.20646535
188	0xbf8936a3	-1.0719799
189	0x3dbc4b35	0.09194032
190	0x3ec6de1a	0.38841325
191	0x3e6efc35	0.23338397
192	0x3f87b07b	1.0600733
193	0x3f6c0fac	0.92211413
194	0x3fdcd208	1.7251596
195	0x3f2b21a4	0.66848207
196	0x3f80b436	1.0054996
197	0xbe2e8d7e	-0.17046162
198	0xbc584d46	-0.013202017
199	0xbe4c68c4	-0.1996184

sequential/dense_2/MatMul f4 [26, 10]
0	0x3e9b3f8f	0.3032193
1	0xbec10f5c	-0.3770703
2	0x3eea8aa6	0.45808905
3	0xbed7d92c	-0.42157876
4	0xbe810e5f	-0.25206277
5	0xbedca6bb	-0.43095955
6	0x3f016589	0.50545555
7	0xbf0b13de	-0.5432719
8	0xbeeab439	-0.45840624
9	0xbddfa90f	-0.10920917
10	0x3e6c0c64	0.23051602
11	0xbf58f3ef	-0.84747213
12	0xbf8b0354	-1.0860391
13	0xbf4dcf4a	-0.80394423
14	0xbf55b975	-0.8348611
15	0x3daee62f	0.08539998
16	0xbefa4369	-0.48879555
17	0x3f8235e5	1.0172697
18	0xbf1a4058	-0.6025443
19	0x3f3b3c33	0.7313873
20	0x3ed87757	0.4227855
21	0xbf597634	-0.8494599
22	0xbf0ad950	-0.5423784
23	0x3d508359	0.050906513
24	0x3ed9a3e6	0.42507857
25	0xbeb52481	-0.35379413
26	0xbe24d20a	-0.16095749
27	0xbea4f08e	-0.3221478
28	0x3e827f16	0.25487584
29	0x3f39d439	0.7258945
30	0x3ee5c0f9	0.4487379
31	0xbf09a2c9	-0.53764015
32	0xbede445a	-0.43411523
33	0x3e632564	0.22182232
34	0xbf9e5563	-1.2369808
35	0x3f079280	0.52957916
36	0xbe5078ee	-0.20358631
37	0xbf84f8d0	-1.0388432
38	0xbec53dcb	-0.38523707
39	0x3f880740	1.0627213
40	0x3eefa54e	0.46805805
41	0xbfba4be0	-1.4554405
42	0x3eaafbda	0.33395272
43	0xbf4fdd92	-0.81197464
44	0x3e52594f	0.20541881
45	0xbfa26da4	-1.268971
46	0xbeeabb37	-0.4584596
47	0x3f20b36c	0.62773776
48	0xbf2dace5	-0.6784194
49	0xbe05da67	-0.13071595
50	0xbdf63f74	-0.120238215
51	0xbf86a828	-1.0520067
52	0xbf2860a2	-0.6577245
53	0xbf230b3e	-0.6368903
54	0x3e9e84eb	0.30960783
55	0xbf3f4d56	-0.7472738
56	0x3ebdb37b	0.37050995
57	0x3f658ce3	0.896681
58	0x3d58900b	0.052871745
59	0xbca523c9	-0.020158665
60	0xbe1f9adc	-0.15586418
61	0xbe421496	-0.18953165
62	0xbeac5700	-0.33660126
63	0x3ec7e0bf	0.39038655
64	0x3f04ddcf	0.51900953
65	0xbe9066f0	-0.28203535
66	0xbe754b4d	-0.23954506
67	0xbed4db5d	-0.4157361
68	0xbdb07dc9	-0.086177416
69	0xbe237754	-0.15963489
70	0x3e4690fb	0.19391243
71	0xbf4d40a1	-0.8017674
72	0xbe9c7f92	-0.30566078
73	0x3f283b37	0.65715355
74	0x3eb5a8f5	0.35480466
75	0xbeb6293c	-0.35578334
76	0xbf684513	-0.907304
77	0xbee3f210	-0.44520617
78	0xbd43b0fb	-0.047776204
79	0x3cc37388	0.0238588
80	0xbf90d1b6	-1.1313999
81	0xbf2d5206	-0.6770328
82	0x3f128217	0.5722975
83	0xbf4ec768	-0.8077302
84	0xbf2f771b	-0.68541116
85	0xbfaa980d	-1.3327652
86	0xbe1bb9b8	-0.15207565
87	0x3f24a17c	0.64308906
88	0xbe61261f	-0.21987198
89	0x3ed1d963	0.40986165
90	0xbf3c9210	-0.73660374
91	0xbf8a3e58	-1.0800276
92	0x3e26500a	0.1624147
93	0x3e19de36	0.15026173
94	0x3dc1ced9	0.09463281
95	0xbf15ddc5	-0.5854152
96	0x3e819f3d	0.25316802
97	0x3eaecf12	0.34142357
98	0xbdb9770f	-0.09055912
99	0xbdfd11f9	-0.12356944
100	0xbfa3bf9c	-1.279285
101	0x3f802b83	1.0013279
102	0x3e60e898	0.21963727
103	0x3f250db9	0.64474064
104	0xbe4531bf	-0.19257258
105	0x3eb3fbf4	0.35153162
106	0xbe8397fa	-0.25701886
107	0x3e9b0842	0.30279738
108	0xbfb9702d	-1.4487358
109	0xbfb9809a	-1.4492371
110	0x3e95a729	0.29229096
111	0x3f97deff	1.1864928
112	0xbf5444c0	-0.82917404
113	0x3ea102e3	0.31447515
114	0xbf538dce	-0.8263825
115	0xbf9a4eb3	-1.2055267
116	0x3f18c3f9	0.5967403
117	0xbfc8aa5e	-1.5676992
118	0xbee91473	-0.45523414
119	0xbe499000	-0.19683838
120	0xbe4155a1	-0.18880321
121	0xbf2cc83c	-0.67493033
122	0x3cdc3302	0.026879791
123	0xbf31ab35	-0.69401866
124	0x3f104bf8	0.5636592
125	0x3d8abd84	0.067744285
126	0x3e08e73a	0.13369456
127	0xbe7ffc43	-0.24998574
128	0x3ee04583	0.43803033
129	0xbe94692f	-0.289865
130	0xbe9e4a32	-0.30915982
131	0xbf2e8a40	-0.681797
132	0xbd5277c1	-0.051383737
133	0xbf1c68b4	-0.61097264
134	0x3eabe0a4	0.33569825
135	0xbcb63abd	-0.022244805
136	0x3eb29765	0.3488113
137	0xbec0d9c9	-0.37666157
138	0x3f0a5fb6	0.54052293
139	0xbe86c35c	-0.26320922
140	0x3e0676ff	0.13131331
141	0xbf81caf3	-1.014006
142	0xbeae87b6	-0.34087914
143	0x3e57d253	0.21076326
144	0x3e9d1675	0.30681196
145	0xbec40368	-0.3828385
146	0x3d88a233	0.06671562
147	0xbdfae44a	-0.12250574
148	0x3d386291	0.045015875
149	0x3eb7abb2	0.3587318
150	0x3d9bc996	0.07606809
151	0xbfa75251	-1.3071996
152	0xbeb6dd1a	-0.35715562
153	0x3f1f89ec	0.6231983
154	0xbe3b5c4a	-0.18296924
155	0x3f1989a0	0.59975624
156	0xbf6608c0	-0.898571
157	0xbed7c330	-0.42141104
158	0x3e496f95	0.19671471
159	0xbe736050	-0.23767209
160	0x3e1042a6	0.14087924
161	0xbf8592f8	-1.0435476
162	0xbf0bcddb	-0.54610986
163	0x3ef20efb	0.47277054
164	0xbe466d76	-0.19377694
165	0x3ea308ee	0.3184275
166	0xbfc9db33	-1.5770019
167	0xbe5c1c75	-0.2149523
168	0x3f0868a0	0.53284645
169	0xbe08f0f7	-0.13373171
170	0xbf151e72	-0.5824958
171	0x3ec157b4	0.37762225
172	0x3f4d45b8	0.8018451
173	0xbf63da63	-0.89005107
174	0xc005aefc	-2.0888052
175	0x3f65c647	0.8975567
176	0xbfebbc95	-1.8416926
177	0x3ecef94a	0.40424567
178	0xbfaee6b3	-1.3664154
179	0xbf054b47	-0.5206799
180	0x3ef22076	0.4729039
181	0xbf1604c2	-0.5860101
182	0x3efd064f	0.49418876
183	0xbf1bd2e7	-0.60868686
184	0x3eb077b1	0.34466317
185	0xbf4698f4	-0.7757714
186	0xbd7a7efa	-0.06115625
187	0xbd3288a7	-0.043587353
188	0xbf149d43	-0.5805246
189	0xbe99b03c	-0.3001727
190	0x3f208a7b	0.62711304
191	0xbec6f060	-0.38855267
192	0xbd3899b2	-0.04506845
193	0x3ce2c3d9	0.027681278
194	0x3e81bd8b	0.25339922
195	0xbf06ef56	-0.5270895
196	0x3ee15c50	0.4401574
197	0xbf68ca59	-0.9093376
198	0xbf0bfa48	-0.54678774
199	0xbdf7f921	-0.121080644
200	0xbf20a841	-0.62756735
201	0x3f365d22	0.7123586
202	0x3f0661ee	0.5249318
203	0xbf473509	-0.778153
204	0xbf4aa333	-0.7915527
205	0x3f2ed87f	0.68299097
206	0xbff68bb7	-1.9261388
207	0x3f31682b	0.6929957
208	0xbf63fe10	-0.89059544
209	0xbf9f1080	-1.242691
210	0xbf5b1dd5	-0.85592395
211	0x3f58b2a8	0.8464761
212	0x3c9a8e2b	0.01886662
213	0x3f062b52	0.5240985
214	0xbe28f32c	-0.16499013
215	0x3f07fa67	0.5311646
216	0xbfd28f66	-1.6450012
217	0x3eceffdb	0.40429577
218	0xbf56ac9c	-0.8385713
219	0xbfc9d47d	-1.5767971
220	0x3f1bda90	0.60880375
221	0xbefb6101	-0.49097446
222	0xbf9e06f9	-1.2345878
223	0xbdb7ac92	-0.08968462
224	0xbd9f0e95	-0.07766453
225	0x3f933bab	1.1502584
226	0xbf3bb070	-0.733161
227	0x3f441ef2	0.7660972
228	0xbf8fbb92	-1.1229117
229	0xbf6dd36d	-0.92900735
230	0x3e26fb7a	0.16306868
231	0x3e312724	0.17300087
232	0x3f1c67a8	0.61095667
233	0xbf0ffa90	-0.56241703
234	0xbf6b1cf1	-0.91841036
235	0xbfb0e5ef	-1.382017
236	0xbe8a67ec	-0.2703241
237	0x3e09f588	0.13472569
238	0xbf11cabf	-0.5694999
239	0xbf0ad99b	-0.5423829
240	0xbf35b060	-0.7097225
241	0xbf6c02a2	-0.9219152
242	0xbd83566c	-0.06412968
243	0xbf173bca	-0.59075606
244	0xbeda8f2f	-0.42687365
245	0x3e977741	0.2958317
246	0x3f80013e	1.0000379
247	0x3e01d940	0.1268053
248	0x3e325f93	0.17419271
249	0x3e1a0ebe	0.15044686
250	0x3b4287b0	0.0029682927
251	0x3f9dc3fe	1.2325437
252	0xbf1631c2	-0.58669674
253	0x3eb29bea	0.34884578
254	0x3f1c878b	0.6114432
255	0xbf98b74a	-1.1930935
