model/keypoint_classifier/keypoint_classifier.tflite (tflite, 7512 bytes, 6 tensors)

sequential/dense/BiasAdd/ReadVariableOp f4 [20]
0	0xbdcf1c0f	-0.101127736
1	0xbd3864cb	-0.045018
2	0xbf51c426	-0.81939924
3	0xbf6a4566	-0.91512144
4	0xbe8c3d6f	-0.2739062
5	0x3f0dbdd1	0.5536776
6	0xbd348986	-0.044076465
7	0xbeae91aa	-0.34095508
8	0xbf4307c9	-0.76183754
9	0xbf39dddb	-0.7260415
10	0x3f771369	0.9651399
11	0x3e8e38dc	0.27777755
12	0xbf4dc79f	-0.8038272
13	0x3f842cd4	1.032618
14	0xbed57ae3	-0.41695318
15	0xbf98e99a	-1.194629
16	0x3ed603b6	0.41799706
17	0xbf609e35	-0.87741405
18	0xbdf1fba9	-0.118155785
19	0xbd166c23	-0.03672422

sequential/dense_2/BiasAdd/ReadVariableOp f4 [26]
0	0xbf1bf559	-0.60921246
1	0x3d1d0a7b	0.038340073
2	0xbf76353f	-0.96175
3	0x3ed4fa54	0.41597235
4	0xbdf53407	-0.11972814
5	0x3de449f0	0.11146915
6	0x3f962872	1.1731093
7	0x3ecd5b92	0.40108925
8	0x3f0d26c8	0.551373
9	0x3d0a6e44	0.033796564
10	0x3e475b45	0.1946841
11	0x3ebad419	0.36489943
12	0x3d52e2e7	0.051485922
13	0x3c714c75	0.014727701
14	0xbf3b1baa	-0.73089087
15	0xbe2e5d85	-0.17027862
16	0xbf837ddb	-1.0272783
17	0x3ee58bd5	0.44833246
18	0xbe336d5a	-0.17522183
19	0xbe7f2b87	-0.24918948
20	0x3ed381ad	0.41309872
21	0x3e3cceb8	0.18438232
22	0x3da1eebb	0.07906862
23	0x3dca4bfa	0.09877773
24	0xbec1a1d5	-0.3781878
25	0xbec29196	-0.38001698

sequential/dense_1/BiasAdd/ReadVariableOp f4 [10]
0	0x3f118da4	0.5685675
1	0x3f16b5ed	0.58871347
2	0xbe202283	-0.15638165
3	0xbeb7760a	-0.35832244
4	0x3f3a216e	0.7270726
5	0x3f407559	0.7517906
6	0x3fafb5ab	1.3727316
7	0xbb1c277f	-0.0023827252
8	0xbea09e52	-0.3137079
9	0xbe1adcee	-0.1512334

sequential/dense/MatMul f4 [20, 42]
0	0xbd9fbf1c	-0.07800123
1	0x3e9cb714	0.30608428
2	0x3c7ad872	0.015310394
3	0x3f1efb55	0.6210225
4	0x3c922f32	0.01784477
5	0x3ea7c5ca	0.3276809
6	0x3ab592aa	0.0013852913
7	0x3e58cee0	0.21172667
8	0x3c7cedc0	0.015437543
9	0x3e2c3f54	0.16821033
10	0xbd0b605e	-0.03402745
11	0x3e23ccaa	0.15996042
12	0x3c3b8e26	0.011447465
13	0x3debbb4b	0.11510333
14	0x3babd19a	0.0052434923
15	0x3dcd445b	0.100228034
16	0xbc9873d6	-0.018609922
17	0xbff107c5	-1.8830496
18	0xbc4ae3dc	-0.0123834275
19	0x3e100edd	0.1406817
20	0x3d1509b6	0.036386214
21	0x3e068c1c	0.13139385
22	0xbca38d30	-0.019964784
23	0x3e02828b	0.1274511
24	0xbd9819da	-0.07426806
25	0x3dd70c6b	0.105004154
26	0xbcaece3f	-0.02133858
27	0x3e062835	0.13101275
28	0x3d51f3ea	0.051258005
29	0x3dd7e5cf	0.105418794
30	0x3c01edef	0.007930263
31	0x3df0dce9	0.11760885
32	0xbd8e5efe	-0.06951712
33	0x3de3f429	0.11130554
34	0xbc12928a	-0.00894607
35	0x3da9bd00	0.08288002
36	0x3cef226b	0.029191216
37	0x3da2fc0b	0.0795823
38	0x3c42dc1c	0.0118932985
39	0x3ce71d84	0.028212316
40	0x39effbe6	0.0004577331
41	0xbc8882da	-0.016663957
42	0xbc946280	-0.018113375
43	0x3e925572	0.28580815
44	0xbdba6d31	-0.09102858
45	0x3efe811f	0.49707887
46	0xbd0f0136	-0.034913264
47	0x3e78b853	0.24289064
48	0x3db79a93	0.089650296
49	0x3edfe99f	0.43732926
50	0x3e0ce4cd	0.13759156
51	0x3ee9dae7	0.45674822
52	0x3d3f2436	0.046665393
53	0xbeca5b8f	-0.3952298
54	0x3d6fde2b	0.058561485
55	0xbf08cb7a	-0.5343548
56	0xbc36a80e	-0.011148466
57	0xbeecb3fe	-0.46231073
58	0xbde5f848	-0.112289965
59	0xbeaac722	-0.3335505
60	0x3d9e6d27	0.07735663
61	0xbeb03d18	-0.3442161
62	0x3d25fca2	0.040524133
63	0x3df0433a	0.117315724
64	0x3d340c75	0.043957192
65	0x3ede2e49	0.43394688
66	0xbd80d073	-0.062897585
67	0x3e9d41db	0.30714306
68	0xbcd71811	-0.026256593
69	0xbecc720b	-0.39930758
70	0x3d226ab5	0.039652545
71	0x3e38914b	0.18024175
72	0xbda99bba	-0.082816556
73	0x3e8a98dc	0.27069747
74	0x3b342fbf	0.002749428
75	0x3e632b0f	0.22184394
76	0xbd67d914	-0.056603506
77	0xbed19712	-0.4093557
78	0x3c3b870a	0.01144577
79	0x3e2fe390	0.17176652
80	0x3c938412	0.018007312
81	0x3e98903e	0.29797548
82	0x3d0cc11a	0.034363844
83	0x3e773254	0.24140292
84	0x3e35b890	0.17746186
85	0x3dfea0dc	0.12433025
86	0xbef67df8	-0.48142982
87	0x3e2d3cef	0.16917776
88	0xbe52a765	-0.20571668
89	0xbe40b6ba	-0.18819705
90	0x3e07a2fd	0.13245769
91	0xbda0b5cd	-0.07847176
92	0x3ee87104	0.45398724
93	0x3d903df1	0.070430644
94	0xbe0d9cf9	-0.13829412
95	0xbdecef2c	-0.11569056
96	0xbe7bad6c	-0.24577874
97	0x3b30cfdf	0.002697937
98	0xbe90a862	-0.28253466
99	0x3e31187c	0.17294496
100	0xbe6659bd	-0.2249517
101	0x3de37d7b	0.11107918
102	0x3e5eb219	0.21747626
103	0xbe8480ef	-0.2587962
104	0xbda301e5	-0.07959346
105	0x3cd1b026	0.02559669
106	0xbec8aa5c	-0.39192474
107	0x3e7db555	0.24776204
108	0xbf076164	-0.5288298
109	0x3e460cde	0.19340846
110	0x3ec40fb4	0.3829323
111	0xbe3c91a5	-0.18414934
112	0x3e1faef2	0.1559408
113	0xbd163ae5	-0.03667726
114	0xbcca4a39	-0.024693595
115	0x3e518edb	0.20464651
116	0xbe183f0f	-0.14867805
117	0x3ed99f99	0.42504576
118	0x3ef435d8	0.4769733
119	0xbeb42732	-0.35186154
120	0x3ea81466	0.32828063
121	0xbe9a68ca	-0.30158073
122	0x3edae61b	0.42753682
123	0xbea25989	-0.31708935
124	0x3ef665c3	0.48124513
125	0xbef9fe9a	-0.48827058
126	0x3d901420	0.070350885
127	0xbc3e2d80	-0.011607528
128	0x3e8130df	0.25232598
129	0x3c208602	0.009797575
130	0x3d2aa0ea	0.041657366
131	0xbe048f98	-0.12945402
132	0xbc406fda	-0.0117454175
133	0xbb3384ac	-0.002739231
134	0xbdbdef94	-0.092742115
135	0x3d8f0534	0.06983414
136	0xbd7ed830	-0.06221789
137	0xbd981486	-0.074257895
138	0x3c621b9a	0.013800526
139	0xbd16bfd7	-0.036804046
140	0x3b966f5e	0.0045909127
141	0x3e213100	0.15741348
142	0xbc25f1b3	-0.010128426
143	0x3ddd5dbc	0.10808894
144	0xbda9da67	-0.0829361
145	0xbc4ea573	-0.012612688
146	0x3d268f6f	0.040664133
147	0xbd9d5333	-0.076818846
148	0xbd4647ea	-0.048408426
149	0x3dd1e62b	0.10248979
150	0xbcdad2df	-0.02671188
151	0x3df3ab39	0.118978925
152	0xbd770bd8	-0.06031403
153	0xbd98eb4b	-0.074667536
154	0x3d80a6e0	0.06281829
155	0xbe1e8751	-0.15481307
156	0x3db67d6c	0.08910641
157	0xbe516c5d	-0.20451494
158	0xbd70adf9	-0.058759663
159	0xbe671785	-0.22567566
160	0xbe068295	-0.1313575
161	0xbd161a83	-0.036646377
162	0x3d570e6e	0.052503996
163	0xbe9d799b	-0.3075684
164	0x3d81fc49	0.06346948
165	0xbf5c60a2	-0.8608495
166	0x3e421f24	0.18957192
167	0xbf5e3318	-0.8679671
168	0x3e1fce90	0.15606141
169	0xbd868204	-0.06567767
170	0x3f450bda	0.7697121
171	0xbf4e7a85	-0.806557
172	0x3ef254a5	0.47330204
173	0xbed4bfa2	-0.41552454
174	0x3f19f39d	0.6013735
175	0xbec145d2	-0.3774858
176	0x3f5e100a	0.86743224
177	0xbf27c30c	-0.6553199
178	0x3eadf038	0.33972335
179	0x3ded853b	0.11597677
180	0x3c8ba4e8	0.017046407
181	0x3c3a75cd	0.011380625
182	0xbb1ec63d	-0.0024227046
183	0xbd798600	-0.060918808
184	0x3d84eac7	0.06490093
185	0xbd6d4e6b	-0.057936113
186	0xbe16f695	-0.14742501
187	0x3e12688e	0.14297697
188	0x3d7ce9b8	0.06174633
189	0x3d590b27	0.05298915
190	0x3e0f054a	0.13966861
191	0x3d508922	0.05091203
192	0x3e838feb	0.25695738
193	0x3d1bd252	0.038042374
194	0xbe6b94ca	-0.23005977
195	0x3e1f1556	0.15535483
196	0x3de1b52c	0.11020884
197	0x3d78f203	0.060777675
198	0x3d123531	0.03569526
199	0x3de7656f	0.11298644
200	0xbdba01b4	-0.09082356
201	0x3e282b41	0.1642275
202	0xbe0f00d9	-0.13965167
203	0x3e767ffd	0.24072261
204	0xbc1e80cc	-0.009674262
205	0x3e10d0ac	0.14142102
206	0x3e9ddbcf	0.30831763
207	0x3e90ceeb	0.28282866
208	0x3eda9f91	0.42699865
209	0x3e96fe6b	0.2949098
210	0xbd819d50	-0.06328833
211	0xbe57c249	-0.21070208
212	0xbe73f0f5	-0.23822387
213	0x3f3d7de9	0.7402025
214	0xbdeb20f9	-0.114808984
215	0x3f46c056	0.7763723
216	0xbdb52de4	-0.088466436
217	0x3f853089	1.0405437
218	0xbe2e9116	-0.17047533
219	0x3fb5901f	1.4184607
220	0xbe4bab4d	-0.19889565
221	0xbba6402c	-0.005073568
222	0xbcf8d41a	-0.030374575
223	0x3cd0b517	0.025476975
224	0x3e538d95	0.20659478
225	0xbd2dbf56	-0.0424188
226	0x3e4585e8	0.19289362
227	0x3e82379a	0.25433046
228	0xbe88deb6	-0.26732415
229	0xbe889826	-0.2667858
230	0xbdf64a7b	-0.12025925
231	0x3e89329a	0.26796418
232	0x3d83ed8b	0.06441792
233	0x3ee90620	0.45512486
234	0x3ee236f0	0.4418254
235	0x3ea0e67b	0.31425843
236	0xbe7838ff	-0.24240492
237	0xbf0b0e50	-0.54318714
238	0xbe2bc776	-0.16775307
239	0x3ea0d28e	0.3141064
240	0x3e313ca2	0.17308286
241	0x3ea6e19a	0.32593995
242	0x3ec00815	0.37506166
243	0xbe67dbd6	-0.22642455
244	0xbdfa6904	-0.122270614
245	0xbef16c46	-0.4715292
246	0xbd9f9b61	-0.07793308
247	0x3e5fe967	0.2186638
248	0xbe119b36	-0.14219365
249	0x3e16c8df	0.14725064
250	0x3e01c60b	0.12673204
251	0xbd8a5ca8	-0.06755954
252	0xbe9023d1	-0.28152326
253	0xbdf3a9c8	-0.118976176
254	0x3f23cd35	0.63984996
255	0xbf0c1953	-0.5472614

sequential/dense_1/MatMul f4 [10, 20]
0	0x3f3e878d	0.74425584
1	0x3f54e44c	0.83160853
2	0x3e8ba5d0	0.27274942
3	0x3d5a1fe8	0.053253084
4	0x3e2ea73a	0.1705598
5	0x3f3f9d66	0.74849546
6	0x3ed1880e	0.40924114
7	0x3eba5d3c	0.36399257
8	0xbe9e0285	-0.30861297
9	0xbec045a7	-0.3755314
10	0x3f43ab2a	0.7643305
11	0xbda8a24c	-0.08234081
12	0x3d1c9c80	0.038235188
13	0x3f3f3a5e	0.74698436
14	0x3d2c9ed9	0.042143676
15	0x3e51ab31	0.2047546
16	0x3f07e21f	0.5307941
17	0x3ddbfd0c	0.10741624
18	0x3d0004bc	0.031254515
19	0xbed0d450	-0.40786982
20	0x402bb5e2	2.6829762
21	0x3f0fbfa7	0.56151813
22	0xbedc6bac	-0.43050897
23	0x3e167bab	0.14695613
24	0x3ec33d18	0.38132548
25	0xbe1a102d	-0.15045233
26	0x3e71aa5f	0.23600148
27	0x3f488960	0.7833462
28	0x3e32fd56	0.17479452
29	0x3d9c28be	0.076249585
30	0xbdc2b250	-0.09506667
31	0x3c84f348	0.016229287
32	0x3f2e700e	0.6813973
33	0xbb351561	-0.002763115
34	0x3f4ac716	0.7921003
35	0xbf01b135	-0.5066102
36	0xbd950bfd	-0.07277677
37	0xbedfca13	-0.43708858
38	0x3ee37688	0.4442637
39	0x3fe9ecdb	1.8275408
40	0xbbcaafa5	-0.0061854892
41	0x3c8c1698	0.017100617
42	0xbe9e73fc	-0.30947864
43	0xbe91fe90	-0.28514528
44	0x3f1afeda	0.6054512
45	0x3ebd8981	0.3701897
46	0x3f0de9d9	0.5543495
47	0xbe580ac4	-0.21097857
48	0x3f406c94	0.7516568
49	0x3f65dc9c	0.8978975
50	0x3ecd5a02	0.40107733
51	0x3f6e596f	0.93105215
52	0x3c44ff9a	0.012023831
53	0x3dbcca47	0.09218269
54	0x3ce86758	0.02836959
55	0xbe21f7e4	-0.15817219
56	0x3f3953dc	0.72393584
57	0xbe1d3872	-0.15353563
58	0xbe15f413	-0.14643888
59	0x3deea0a1	0.11651731
60	0xbdf340ba	-0.1187758
61	0xbf140167	-0.5781464
62	0x3f1a2e99	0.6022735
63	0x3f816294	1.0108209
64	0xbe5faf18	-0.21844137
65	0xbce09161	-0.027413072
66	0xbef05dc3	-0.46946535
67	0xbc983f8a	-0.018584985
68	0x3f2c3e17	0.6728224
69	0x3f0c44c0	0.54792404
70	0xbd15baea	-0.03655521
71	0x3f5f86cf	0.87315077
72	0x3edf29ac	0.4358648
73	0xbc5d4700	-0.013505697
74	0x3ee9a172	0.45630985
75	0x3e6e4050	0.23266721
76	0xbc1bc02f	-0.009506269
77	0xbdd3e7c2	-0.10346939
78	0x3fa017e9	1.2507297
79	0x3f656e28	0.8962121
80	0xbd6ed968	-0.058312804
81	0x3e4d2d03	0.20036702
82	0x3f3cd5ac	0.7376354
83	0x3f048b88	0.5177541
84	0x3e8cefdc	0.27526748
85	0xbfaed663	-1.3659176
86	0xbc8fbf0b	-0.017547151
87	0x3e1ee966	0.15518722
88	0x3f955f39	1.1669685
89	0x3faddd8e	1.3583238
90	0xbf8c30c3	-1.0952381
91	0x3eee554f	0.4654946
92	0x3e256148	0.16150391
93	0xbf551dc1	-0.83248526
94	0x3dc07586	0.09397416
95	0x3f83f4f7	1.0309132
96	0xbf82120c	-1.0161757
97	0x3f65c87c	0.8975904
98	0xbe6d08e9	-0.2314793
99	0xbf3bf2fe	-0.7341765
100	0x3d8203d2	0.06348385
101	0xbdd581f7	-0.104251795
102	0xbda855cd	-0.0821949
103	0xbd850aa6	-0.06496172
104	0x3f644e6a	0.8918215
105	0xbf672202	-0.90286267
106	0x3f043fa2	0.51659596
107	0x3ef8f10a	0.48621398
108	0xbeac1941	-0.33613017
109	0x3e987e43	0.2978383
110	0xbe1cac8d	-0.15300198
111	0xbec2d917	-0.3805625
112	0x3d20a7db	0.03922258
113	0x3d6e64ea	0.058201708
114	0xba163f4e	-0.0005731479
115	0xbc30d13e	-0.010792075
116	0xbf6a861f	-0.916109
117	0x3ef92f22	0.48668772
118	0xbee08728	-0.43853116
119	0xbd457557	-0.048207607
120	0x3d3e8d7e	0.046521656
121	0xbe17de09	-0.14830793
122	0x3e83d1f2	0.25746113
123	0x3eae2a23	0.34016523
124	0xbead40f5	-0.3383862
125	0xbf7c8420	-0.98639107
126	0xbe903c44	-0.2817098
127	0xbe9cf619	-0.30656508
128	0xbdf0a201	-0.1174965
129	0xbedeb538	-0.43497634
130	0xbf9a73f7	-1.206664
131	0xbef0d47a	-0.47037107
132	0x3f447181	0.76735693
133	0xbfa47d1d	-1.2850682
134	0x3f435ad1	0.7631045
135	0x3e176318	0.14783895
136	0xbf9c1cce	-1.219629
137	0x3dbdc12d	0.09265361
138	0x3e8b3b9b	0.27193913
139	0x3f83db16	1.0301235
140	0x3d9477a4	0.07249382
141	0x3e8f6b26	0.28011435
142	0x3f82ea63	1.0227779
143	0x3f36b156	0.71364343
144	0x3e32b710	0.17452645
145	0x3d832d29	0.06405098
146	0x3eb52608	0.35380578
147	0x3e6383ae	0.222182
148	0x3e54731c	0.20747036
149	0xbe87f44c	-0.2655357
150	0x3d6cd94c	0.057824418
151	0x3e8c9063	0.27453908
152	0x3ed89ba4	0.42306244
153	0x3ba13143	0.0049192025
154	0x3eca295d	0.39484683
155	0x3f9e5ec9	1.2372676
156	0xbe051c88	-0.12999165
157	0x3f2652cd	0.64970094
158	0x3f1415a5	0.57845527
159	0xbf79056b	-0.9727389
160	0x3e042cbc	0.1290769
161	0x3f05d7dc	0.522825
162	0x3eb2d787	0.3493006
163	0x3de06f03	0.10958674
164	0x3e87768f	0.2645764
165	0x3e4a4f21	0.19756748
166	0x3b2a5322	0.0025989492
167	0x3dd3d1b2	0.103427306
168	0x3ea97e53	0.3310419
169	0x3ed9c969	0.42536476
170	0x3e5cef8a	0.21575752
171	0xbec95a42	-0.39326674
172	0x3f0f164d	0.55893403
173	0x3e1bbc87	0.15208636
174	0x3f0302db	0.5117623
175	0x3f74b5e7	0.9559006
176	0x3ee14efc	0.44005573
177	0x3f62bead	0.885722
178	0xbef98c8f	-0.4874005
179	0xbf078609	-0.52938896
180	0xbcfc42f1	-0.030793639
181	0xbd6ac0a9	-0.05731264
182	0x3eacdbe0	0.337615
183	0x3f1ae8de	0.6051158
184	0x3ec05df4	0.3757168
185	0x3ed5d355	0.41762796
186	0x3e86212d	0.26197186
187	0x3f50e7c3	0.8160364
188	0x3c1820c2	0.009285154
189	0xbcba6982	-0.022755388
190	0x3f5ea6e6	0.86973417
191	0xbe8116f6	-0.2521283
192	0xbd2f3e45	-0.042783994
193	0x3f588a2d	0.8458584
194	0xbd901ab3	-0.070363425
195	0x3f0198e9	0.5062395
196	0x3ec4242c	0.38308847
197	0xbc827957	-0.015927
198	0xbeadaa06	-0.3391878
199	0x3e970ee9	0.29503563

sequential/dense_2/MatMul f4 [26, 10]
0	0xbf51550f	-0.81770414
1	0xbe78b3fc	-0.24287409
2	0x3e71ecc3	0.23625474
3	0xbe15bb09	-0.1462213
4	0x3efc0395	0.49221483
5	0x3e50c91e	0.2038922
6	0xbe4f576a	-0.2024819
7	0x3f0648db	0.5245492
8	0x3ec6a2b3	0.38796005
9	0x3dcadfef	0.09905993
10	0xbf70cc6d	-0.9406193
11	0x3f0161a1	0.50539595
12	0xbeacd2ec	-0.3375467
13	0x3f0a482d	0.5401638
14	0xbdb31892	-0.08744921
15	0xbf53ec7a	-0.8278271
16	0x3c56f34a	0.013119528
17	0xbe9fe439	-0.31228808
18	0xbea9b2bb	-0.33144173
19	0xbd432e01	-0.047651295
20	0xbf22e585	-0.6363147
21	0x3ecb5175	0.39710584
22	0x3beaed2f	0.007169388
23	0x3f3af614	0.73031735
24	0xbe7db1c0	-0.24774837
25	0x3e01c6b4	0.12673455
26	0xbe5e4658	-0.21706522
27	0x3d07a13d	0.033112753
28	0xbe0fe13b	-0.14050762
29	0x3f0401ec	0.5156543
30	0x3eef5ed1	0.46752027
31	0x3e88ed12	0.2674337
32	0xbf45e524	-0.77302766
33	0xbf2b1662	-0.6683103
34	0xbd5dacda	-0.054119922
35	0xbf0c6d8d	-0.5485466
36	0x3e6e9486	0.23298845
37	0x3ec29daf	0.38010928
38	0xbf23fed1	-0.64060694
39	0xbf229852	-0.6351367
40	0xbdb820fd	-0.08990667
41	0xbedfb8db	-0.4369572
42	0xbf12feee	-0.5742024
43	0xbda38681	-0.07984639
44	0x3e6fbb21	0.23411228
45	0xbf1de699	-0.6167999
46	0x3ec126f5	0.37725034
47	0x3f0ef97d	0.5584944
48	0x3da0c12d	0.07849345
49	0xbcf9fe2a	-0.030516703
50	0xc00076fc	-2.0072622
51	0x3d44786c	0.047966406
52	0x3e1fc2f6	0.15601715
53	0x3f3dd5da	0.74154437
54	0x3c831ff4	0.016006447
55	0xbf26d253	-0.6516468
56	0x3edd59ac	0.43232477
57	0xbed95b8a	-0.4245265
58	0xbeb4b6a6	-0.352956
59	0x3d82f2d9	0.06393976
60	0x3ecdddb4	0.4020821
61	0x3bf05b9e	0.0073351404
62	0xbc0d53e2	-0.008625956
63	0x3d3156a7	0.04329553
64	0xbe99132e	-0.29897445
65	0x3f4bf6fa	0.7967373
66	0xbf8d28bc	-1.1028056
67	0xbf4f8207	-0.8105778
68	0xbfb2b8b5	-1.3962618
69	0x3da5b715	0.08091561
70	0xbc209344	-0.009800736
71	0x3e1c4d22	0.15263799
72	0x3e5c5e92	0.2152045
73	0xbf4409d3	-0.7657749
74	0xbf8a0afd	-1.0784603
75	0x3f09f503	0.53889483
76	0xbf8fb0bb	-1.1225809
77	0xbefd4cff	-0.49472806
78	0xbfafae84	-1.3725133
79	0x3eee6edd	0.46568957
80	0xbefd3f0f	-0.49462172
81	0xbf47bba5	-0.780207
82	0xbe16b132	-0.14716032
83	0x3ebdf050	0.37097406
84	0x3f12fd2e	0.5741757
85	0xbf1dcb93	-0.61638755
86	0x3e21495a	0.15750638
87	0x3efd1e24	0.49437058
88	0xbedb2cff	-0.42807767
89	0xbe5c53ce	-0.21516344
90	0x3cac3faa	0.021026451
91	0xbe262f19	-0.16228904
92	0x3e9f4237	0.31105205
93	0x3e89515e	0.2681989
94	0x3e0af14d	0.13568611
95	0x3dcb79d6	0.09935348
96	0xbef1e638	-0.47245955
97	0x3d3b095d	0.045663226
98	0x3c5a13e1	0.013310404
99	0x3ee5479d	0.447812
100	0xbf677145	-0.9040721
101	0x3f05116c	0.5197971
102	0x3e0af5c9	0.13570322
103	0xbe9e4f1e	-0.30919737
104	0xbdf66226	-0.12030439
105	0x3ef1fa14	0.47261107
106	0x3e9dbdee	0.30808967
107	0xbf6a4daf	-0.91524786
108	0xbe59bd92	-0.21263722
109	0xbfa151ea	-1.2603123
110	0xbe877e0e	-0.2646336
111	0x3f048cfa	0.51777613
112	0x3f14bfea	0.5810534
113	0xbf0652a5	-0.52469856
114	0x3f0e99bb	0.55703324
115	0xbe7bc2cc	-0.24586028
116	0xbe8ef19b	-0.27918705
117	0xbe9c04d1	-0.30472425
118	0xbe8878bb	-0.2665461
119	0xbf781489	-0.96906334
120	0xbbefe6dd	-0.007321222
121	0xbf529cfa	-0.8227078
122	0xbd28aa2c	-0.041177914
123	0xbe1bd8d4	-0.15219432
124	0xbdb61a66	-0.08891754
125	0x3cb2f459	0.02184503
126	0x3ef7cc80	0.4839821
127	0x3ec54cb0	0.3853507
128	0x3f017c7b	0.5058057
129	0x3e529560	0.20564795
130	0xbe71f81b	-0.23629801
131	0xbf1a9ae8	-0.6039262
132	0xbe7e471c	-0.24831814
133	0xbef4c6f9	-0.47808054
134	0x3e703f59	0.23461665
135	0x3e208104	0.15674216
136	0x3e94eaa4	0.29085267
137	0x3f0af27f	0.5427627
138	0x3e94775e	0.2899732
139	0x3e1d30c1	0.1535063
140	0xbf598631	-0.84970385
141	0x3d101a1d	0.035181154
142	0xbd58ad7e	-0.05289983
143	0x3ee6ffd4	0.45117056
144	0xbe573c1f	-0.21019028
145	0x3f11fcc2	0.570263
146	0xbe29a87e	-0.16568181
147	0x3f1cd905	0.61268646
148	0xbde316b1	-0.110883124
149	0x3eb62950	0.35578394
150	0x3eae2cb8	0.34018493
151	0x3e82d851	0.2555566
152	0x3ecce67a	0.4001959
153	0xbebe6b4a	-0.3719123
154	0xbf0ed958	-0.5580039
155	0xbcbc31f2	-0.022973035
156	0xbd4b8bb6	-0.049693786
157	0xbe9c6d8c	-0.30552328
158	0xbe872476	-0.26395005
159	0x3cd76d8d	0.026297355
160	0x3f0bb048	0.5456586
161	0x3d1d83e4	0.03845586
162	0x3f1748c0	0.5909538
163	0xbd5232e3	-0.05131806
164	0xbeeb8d4a	-0.46006233
165	0xbed1176b	-0.4083818
166	0xbf99f667	-1.2028321
167	0xbea25c6c	-0.31711137
168	0xbee0a7d7	-0.43878052
169	0x3d8ca167	0.068667226
170	0xbf0f1f6a	-0.5590731
171	0x3f0255f4	0.50912404
172	0xbf6634e8	-0.8992448
173	0x3d38b00e	0.045089774
174	0xbf1cc10b	-0.6123206
175	0x3c8bd57e	0.017069574
176	0x3e7e1c07	0.24815379
177	0xbf4ae65d	-0.79257756
178	0xbd9ff227	-0.07809859
179	0xbf5e5880	-0.8685379
180	0xbea6bcb5	-0.32565847
181	0xbf210d67	-0.62911075
182	0xbec6b86a	-0.38812572
183	0xbde27caf	-0.11058938
184	0x3f271dee	0.65280044
185	0xbead4d0b	-0.33847842
186	0x3ea56d39	0.32309893
187	0x3c81e8b5	0.015858034
188	0x3f0a78e7	0.5409073
189	0x3e073de9	0.1320721
190	0xbe8c8464	-0.27444756
191	0xbf0a0c10	-0.53924656
192	0xbed8cb01	-0.4234238
193	0xbd8fe67b	-0.070263825
194	0x3f232dd0	0.6374178
195	0x3de6d991	0.11271966
196	0x3d27d4d4	0.040974453
197	0xbd3b1e56	-0.045683227
198	0x3ed6c2be	0.41945451
199	0xbdb3532f	-0.087561004
200	0xbf10bda7	-0.56539387
201	0x3ef10791	0.47076085
202	0xbfd05fa3	-1.6279186
203	0xbea85917	-0.3288047
204	0xbf20d20c	-0.62820506
205	0xbdea5f75	-0.11443988
206	0x3f104454	0.5635426
207	0xbf47955a	-0.7796227
208	0xbe6fad91	-0.23406054
209	0xbf08a3c3	-0.5337488
210	0x3c540318	0.012940191
211	0x3ebd4013	0.36962947
212	0x3db6ca17	0.08925264
213	0xbea0de15	-0.31419435
214	0xbf211e72	-0.6293708
215	0xbef97473	-0.48721656
216	0x3f2bb500	0.6707306
217	0xbf709354	-0.93974805
218	0xbe33b6ef	-0.17550252
219	0x3ec42871	0.38312104
220	0xbeb07190	-0.3446164
221	0x3eed56f1	0.46355394
222	0xbfc0eb79	-1.507186
223	0x3d99f280	0.07516956
224	0xbf4b92c1	-0.79520804
225	0xbf726901	-0.94691473
226	0x3ef86909	0.48517635
227	0xbeb2f3eb	-0.3495172
228	0xbe8cb40e	-0.2748112
229	0xbe084c84	-0.13310438
230	0xbcbbc35f	-0.022920309
231	0x3e78b686	0.24288377
232	0xbf805548	-1.0026026
233	0xbf7e87a9	-0.9942575
234	0x3e730b41	0.23734762
235	0x3f1ae01c	0.60498214
236	0xbdbf66cf	-0.09345781
237	0xbe364874	-0.17801076
238	0x3e997eaa	0.2997945
239	0xbe4d9bf2	-0.2007902
240	0xbe6656f2	-0.22494105
241	0xbf8d977a	-1.1061852
242	0x3ead9723	0.3390437
243	0x3e9d79e8	0.3075707
244	0x3f5fc6c7	0.87412685
245	0xbd55ec75	-0.052227456
246	0xbdd3186a	-0.10307391
247	0xbcc9dc7b	-0.024641266
248	0xbed0f3cc	-0.40811002
249	0x3e5da051	0.21643187
250	0x3e16456d	0.14674921
251	0x3e382b70	0.1798532
252	0x3e2a8355	0.16651662
253	0x3e5b23ac	0.21400326
254	0xbea228a1	-0.31671622
255	0xbf39b1d2	-0.7253696
