model/keypoint_classifier/keypoint_classifier.tflite (tflite, 609224 bytes, 16 tensors)

sequential/dense_7/MatMul f4 [26, 10]
-0.28117472 0.25046447 0.33762187 -0.26118296 -0.1758994 -0.0015335133 -0.06556572 -0.4818069
0.18332165 -0.2795896 -0.9077583 -0.29774302 -0.7405207 -0.07650067 -0.5149051 -0.191795
0.004154688 0.30202103 -0.1886998 0.31226665 -0.2410002 0.03072176 -0.59307265 -0.3486898
-0.5338549 -0.15265071 0.26367265 -0.32317495 0.38252443 0.2050162 -0.16354223 -0.4820036
-0.19346109 -0.28095236 -0.3065724 -0.12127682 0.13461238 0.11046704 0.4800409 -0.09582577
-0.72118235 0.14676158 -0.020498008 -0.16957176 -0.20842543 -0.37521937 -0.28311032 0.13166763
0.15310326 0.20094319 -0.6294774 -0.115796484 -0.268667 -0.5371875 -0.58450204 0.1443802
0.31346083 0.12157277 0.011840175 0.084975064 0.12866727 0.083842374 -0.19025917 -0.2690703
0.104187965 0.12862584 -0.1238527 -0.7138245 -0.22207572 0.018806566 0.02687578 -0.22069001
-0.43134356 -0.21446237 0.20619631 0.11127263 0.20648322 -0.38968083 -0.40972942 0.1901702
-0.05285703 0.05801359 0.13887377 -0.31210268 0.013610784 -0.46675897 0.17204498 0.30063307
-0.13236724 -0.13406815 -0.11745227 -0.14092115 0.33325824 -0.3636776 -0.052207638 -0.30133086
0.13983195 -0.18214409 -0.28106654 0.281058 -0.16531678 -0.30795556 -0.3159857 0.002999482
-0.12148505 0.5366743 0.050054714 -0.09656862 -0.17575003 -0.45257747 -0.13448861 0.11198987
-0.15092115 0.015781295 0.055559006 -0.12299296 0.24991584 -0.16000475 0.2118907 -0.48569605
-0.50218505 0.46840057 -0.06834654 0.115582824 0.04138622 -0.08716256 -0.0016908606 -0.18858331
-0.23223923 -0.11304058 -0.6536389 0.29610398 -0.049070816 0.32388896 -0.004534387 -0.1848117
0.10305582 -0.18874367 -0.41463074 -0.05774493 -0.20549257 -0.18763062 -0.028729819 -0.71926236
-0.40225822 -0.045138586 0.079208985 -0.07752239 0.4260308 0.17844005 0.33573845 -0.4272232
-0.17919636 -0.035999727 -0.11670221 -0.24730715 0.43889412 -0.2722826 -0.1853888 -0.099700816
0.062965326 -0.5142708 -0.11060066 0.014169155 -0.28811723 -0.3512169 0.5221828 -0.6642318
-0.30408207 -0.081791714 -0.15309177 -0.41997954 -0.3849834 -0.15326482 -0.2092319 0.4108035
-0.23385821 0.3293616 -0.021129306 -0.22551665 -0.32475442 0.16641894 0.21548077 -0.14769357
-0.13501488 -0.0614499 -0.39682093 0.18435986 0.02086588 -0.33758393 -0.40894967 0.1303236
0.285296 -0.055369385 -0.023755906 -0.25462505 0.052615244 -0.30338037 0.29992458 -0.47424665
-0.24301429 -0.41174698 -0.37013924 0.099375695 -0.023734134 0.33667204 -0.15923674 0.3209883
-0.16130944 -0.26447397 -0.27784836 -0.30764472 -0.31693864 0.31308028 -0.3039703 0.3301827
0.0638941 0.05499753 -0.052231766 -0.26285422 -0.51407033 -0.1339372 -0.51797706 0.09908722
-0.32729864 0.35841283 -0.11337567 0.012159291 -0.041203868 0.11033506 -0.25827911 -0.031085221
-0.011112652 -0.18673234 0.23736198 0.13946676 -0.0081026405 0.0075095356 0.17538495 -0.2578868
-0.22101273 0.27882788 0.20054534 -0.33686313 -0.18539663 -0.22775805 0.35713515 -0.1975178
-0.14087473 -0.15984185 -0.08613671 -0.14838867 0.03214042 0.22201352 -0.12704597 -0.0631392
00000000: 22f6 8fbe e13c 803e c6dc ac3e c6b9 85be
00000010: f91e 34be 2b00 c9ba 5247 86bd 65af f6be
00000020: acb8 3b3e 5e26 8fbe d962 68bf c671 98be
00000030: c492 3dbf 62ac 9cbd d2d0 03bf e965 44be
00000040: 0d24 883b 80a2 9a3e 853a 41be 6ae1 9f3e
00000050: c2c8 76be 33ac fb3c 9cd3 17bf 7887 b2be
00000060: b7aa 08bf 7850 1cbe 1a00 873e 3077 a5be
00000070: 3eda c33e c4ef 513e 9d77 27be 2dc9 f6be
00000080: aa1a 46be fdd8 8fbe 0ff7 9cbe fb5f f8bd
00000090: d4d7 093e 8b3c e23d ecc7 f53e 4d40 c4bd
000000a0: 689f 38bf ab48 163e 70eb a7bc 38a4 2dbe
000000b0: 7a6d 55be c11c c0be d6f3 90be e1d3 063e
000000c0: 1ac7 1c3e 0dc4 4d3e 6e25 21bf b526 edbd
000000d0: b98e 89be 1f85 09bf eda1 15bf 67d8 133e
000000e0: f07d a03e 25fb f83d 4bfd 413c 6807 ae3d
000000f0: 5ac1 033e 8db5 ab3d 4dd3 42be 95c3 89be
00000100: 8060 d53d 7eb6 033e 7ca6 fdbd 34bd 36bf
00000110: d167 63be 3a10 9a3c 992a dc3c 90fc 61be
00000120: 10d9 dcbe 069c 5bbe 2025 533e e8e2 e33d
00000130: 5670 533e 3f84 c7be 0ec8 d1be fabb 423e
00000140: 9d80 58bd a89f 6d3d ed34 0e3e eccb 9fbe
00000150: c4ff 5e3c 08fb eebe 8f2c 303e 94ec 993e
00000160: 478b 07be 2949 09be d18a f0bd a24d 10be
00000170: d3a0 aa3e f333 babe add7 55bd 0a48 9abe
00000180: 1b30 0f3e fb83 3abe f4e7 8fbe d6e6 8f3e
00000190: cd48 29be 5aac 9dbe e1c8 a1be f592 443b
000001a0: 27cd f8bd 7d63 093f 2c06 4d3d c5c5 c5bd
000001b0: d1f7 33be 3cb8 e7be 62b7 09be f25a e53d
000001c0: 138b 1abe c647 813c d791 633d bce3 fbbd
000001d0: f0e9 7f3e 49d8 23be e0f9 583e 27ad f8be
000001e0: 338f 00bf 33d2 ef3e 45f9 8bbd b0b6 ec3d
000001f0: 9984 293d 4982 b2bd de9f ddba fc1b 41be
00000200: 1fd0 6dbe d281 e7bd e154 27bf f19a 973e
00000210: 7bfe 48bd c6d4 a53e 3295 94bb 473f 3dbe
00000220: ee0e d33d 0546 41be 7b4a d4be f385 6cbd
00000230: a56c 52be 3e22 40be cc5a ebbc 9421 38bf
00000240: caf4 cdbe 3de3 38bd 5238 a23d 0fc4 9ebd
00000250: b620 da3e fdb8 363e e9e5 ab3e 00bd dabe
00000260: 407f 37be 7374 13bd 9101 efbd 163e 7dbe
00000270: bbb6 e03e a068 8bbe 90d6 3dbe f12f ccbd
00000280: f7f3 803d 40a7 03bf 9982 e2bd be25 683c
00000290: 1a84 93be b4d2 b3be c6ad 053f 180b 2abf
000002a0: a5b0 9bbe 6a82 a7bd 17c4 1cbe 8f07 d7be
000002b0: 8b1c c5be 74f1 1cbe e340 56be d654 d23e
000002c0: 8778 6fbe 15a2 a83e 5e17 adbc d6ed 66be
000002d0: 3646 a6be ba69 2a3e fea6 5c3e fc3c 17be
000002e0: 5741 0abe e4b2 7bbd 1d2c cbbe d5c8 3c3e
000002f0: ecee aa3c cdd7 acbe da61 d1be 8d73 053e
00000300: 5112 923e 02cb 62bd bf9b c2bc 375e 82be
00000310: 1583 573d ac54 9bbe b78f 993e 75d0 f2be
00000320: bdd8 78be 80d0 d2be e482 bdbe 7c85 cb3d
00000330: 166e c2bc 4760 ac3e f50e 23be 9458 a43e
00000340: 4d2e 25be 2269 87be 2442 8ebe 9c83 9dbe
00000350: c845 a2be 0f4c a03e ffa1 9bbe b50d a93e
00000360: e9da 823d 1745 613d faf0 55bd d494 86be
00000370: 1d9a 03bf d526 09be 259a 04bf 3eee ca3d
00000380: b093 a7be e381 b73e 8131 e8bd c337 473c
00000390: 63c5 28bd 59f7 e13d 293d 84be 6fa6 febc
000003a0: d711 36bc c336 3fbe 050f 733e 60d0 0e3e
000003b0: f0c0 04bc 8d12 f63b 1d98 333e bd09 84be
000003c0: 2951 62be 87c2 8e3e c25b 4d3e 5379 acbe
000003d0: 9dd8 3dbe 6839 69be 6bda b63e 1b42 4abe
000003e0: 7741 10be 95ad 23be 7268 b0bd 33f3 17be
000003f0: aca5 033d 8357 633e 5718 02be 204f 81bd

sequential/dense/BiasAdd/ReadVariableOp f4 [128]
0.11426735 0.018805262 0.07677389 -0.1345848 -0.20222774 -0.116186254 -0.019284239 -0.2184933
0.26318073 -0.1823052 0.07449306 -0.17902161 -0.11031805 -0.15319175 -0.30511892 -0.18044086
-0.006562542 0.3636761 -0.22144696 0.30407432 -0.047436528 -0.090548046 -0.22179206 0.1652812
0.23165536 -0.016261544 -0.19094773 0.10373168 -0.48040715 -0.3619447 -0.17713745 -0.08338074
-0.03387827 0.5103225 -0.22776999 0.20939495 -0.10576995 -0.39856115 -0.101247825 -0.22873498
0.34900418 0.117294505 -0.16126455 -0.4037753 0.0782893 0.05764538 0.060316317 -0.106546246
-0.25501764 0.16017918 0.029001215 -0.21357626 -0.0031800638 0.011563984 0.05930938 0.41996688
0.0057409406 0.15574865 -0.1192003 0.13802 -0.10433166 -0.047395844 -0.07622241 0.27467602
0.0070326035 0.04286113 -0.05452054 -0.35318607 0.16712838 0.64721835 0.24097784 -0.02158453
-0.03955574 0.40845913 0.17400344 0.10871618 -0.035170488 -0.028356109 0.14912866 -0.13279623
-0.23051572 0.030250054 0.048681084 -0.15089601 0.025575396 -0.15617348 0.056142848 -0.056925654
0.035335068 0.37415594 0.31660506 -0.16290237 0.0818288 -0.21721436 0.11386926 -0.20823912
-0.09314025 0.3141399 0.077131465 -0.22269931 0.11425482 0.35529134 -0.052955724 0.0044889436
-0.33934858 0.12072822 -0.19971275 0.08176714 -0.22949351 0.14800964 -0.10993143 -0.32221386
0.00838229 -0.15119419 -0.31775925 -0.07126496 -0.11649172 -0.1411349 -0.40443653 -0.08440954
-0.08243464 -0.13655367 0.057329316 -0.027564803 -0.028450953 -0.061296966 -0.16451567 -0.0993414
00000000: 0005 ea3d 7e0d 9a3c a13b 9d3d 99d0 09be
00000010: ca14 4fbe 0ff3 edbd fbf9 9dbc b5bc 5fbe
00000020: a0bf 863e 37ae 3abe d18f 983d 7151 37be
00000030: 6eee e1bd 4cde 1cbe 8c38 9cbe 7dc5 38be
00000040: 980a d7bb c133 ba3e fec2 62be a1af 9b3e
00000050: ce4c 42bd 4171 b9bd 751d 63be 7a3f 293e
00000060: 1037 6d3e ee36 85bc cd87 43be 4671 d43d
00000070: edf7 f5be d150 b9be 8563 35be 85c3 aabd
00000080: f1c3 0abd 7fa4 023f 893c 69be a16b 563e
00000090: ea9d d8bd 3510 ccbe 055b cfbd 8139 6abe
000000a0: adb0 b23e 1a38 f03d 8922 25be a3bb cebe
000000b0: 2456 a03d 901d 6c3d 3e0e 773d eb34 dabd
000000c0: ac91 82be 0306 243e f593 ed3c bcb3 5abe
000000d0: 9e68 50bb dd76 3d3c 64ee 723d e605 d73e
000000e0: 801e bc3b 937c 1f3e 491f f4bd 1d55 0d3e
000000f0: d6ab d5bd 2522 42bd 7f1a 9cbd 56a2 8c3e
00000100: c171 e63b 278f 2f3d ee50 5fbd ced4 b4be
00000110: b423 2b3e 1ab0 253f e5c2 763e 0ad2 b0bc
00000120: 3305 22bd 8e21 d13e f52d 323e 97a6 de3d
00000130: ee0e 10bd 124b e8bc 2fb5 183e bcfb 07be
00000140: 500c 6cbe f6ce f73c d165 473d 7c84 1abe
00000150: 7e83 d13c f1eb 1fbe 0bf6 653d e02a 69bd
00000160: 81bb 103d 5e91 bf3e 0f1a a23e e1cf 26be
00000170: dc95 a73d 716d 5ebe 4934 e93d a33c 55be
00000180: 51c0 bebd f2d6 a03e 1af7 9d3d 4a0b 64be
00000190: 6efe e93d bfe8 b53e 1ae8 58bd fd17 933b
000001a0: 19bf adbe 5b40 f73d 8081 4cbe 8875 a73d
000001b0: 5900 6bbe d78f 173e bb23 e1bd 37f9 a4be
000001c0: df55 093c a6d2 1abe 57b1 a2be 5df3 91bd
000001d0: 3693 eebd ab85 10be 4e12 cfbe e9de acbd
000001e0: 7ed3 a8bd bad4 0bbe 25d2 6a3d 95cf e1bc
000001f0: f911 e9bc 8712 7bbd cc76 28be 8173 cbbd

sequential/dense_7/BiasAdd/ReadVariableOp f4 [26]
-0.23041396 0.7069502 0.22067706 0.012799549 -0.10925481 -0.2676135 0.1422786 0.17956316
0.28114536 0.22874436 0.34330797 -0.8395627 0.26320967 -0.074995585 0.20329507 -0.14631754
0.22449733 0.14567304 0.41091102 -0.14936763 0.22385064 -0.079096675 -0.6016714 -0.23996253
-0.6284967 -0.5954498
00000000: a3f1 6bbe b0fa 343f 2bf9 613e 33b5 513c
00000010: fcc0 dfbd a304 89be 7bb1 113e 68df 373e
00000020: 49f2 8f3e f63b 6a3e 10c6 af3e 95ed 56bf
00000030: 6bc3 863e 4997 99bd 952c 503e 44d4 15be
00000040: a1e2 653e 502b 153e ee62 d23e d4f3 18be
00000050: 1a39 653e 70fd a1bd 2307 1abf bdb8 75be
00000060: 29e5 20bf 666f 18bf

sequential/dense_6/BiasAdd/ReadVariableOp f4 [10]
1.3189749 0.6390798 1.0102034 0.37258545 0.7935198 0.48933682 0.3480309 1.0702771
0.7116675 0.81898326
00000000: 2bd4 a83f bc9a 233f 584e 813f 85c3 be3e
00000010: 1d24 4b3f 5b8a fa3e 1b31 b23e d7fe 883f
00000020: d72f 363f e3a8 513f

sequential/dense_5/BiasAdd/ReadVariableOp f4 [128]
0.46264035 0.54190403 0.46248522 0.2342945 0.239726 0.19708203 0.26507786 0.49990332
0.17721039 0.14316879 0.22816853 0.579013 0.19459644 0.35283616 0.6788752 0.28460127
0.80016756 0.57025784 0.16789882 0.24497989 0.3631183 0.3649457 0.34782338 0.43523195
0.32717723 0.38823354 0.34869632 0.2991797 0.19388862 0.41017637 0.019736286 0.02442306
0.107260734 0.27703753 0.450945 0.3877813 0.38727394 0.32958612 0.20107113 0.63440543
0.15752153 0.2903601 0.36690643 0.24618591 0.40089494 0.26699686 0.0019810027 0.3952088
0.6312601 0.39609322 0.37904054 0.3042576 0.49785018 0.44953188 0.24283846 0.22580424
0.11597499 0.47201908 0.14593966 0.26307714 0.35277686 0.18033426 0.2881143 -0.024245985
0.28043053 0.47623584 0.31313413 0.15742394 -0.0960569 0.24370015 0.3628135 0.10515187
0.171151 -0.12496077 0.34157908 0.3321876 0.10845891 0.2853348 0.4977478 0.5759138
0.5451234 0.50701547 0.13827795 0.32130063 -0.07307115 0.48945758 0.45536166 0.46911076
0.4144455 0.13838886 0.51180816 0.3940127 0.46562606 0.041910242 0.4465051 0.24023458
0.5554326 0.46126312 0.34075195 0.06778894 0.45531252 0.37903774 0.5083281 0.22768058
0.21534975 0.58185333 0.21433643 -0.14925653 0.20047438 0.37495607 0.1787904 0.4085188
0.45702145 0.25548083 0.16091314 0.45721212 0.27347538 0.15055911 0.26241252 0.13366975
0.42370513 0.37296823 0.43974146 0.37206957 0.35297886 0.6034789 0.287465 0.31420603
00000000: 32df ec3e 39ba 0a3f ddca ec3e e6ea 6f3e
00000010: bc7a 753e dfcf 493e 49b8 873e 54f3 ff3e
00000020: a476 353e d79a 123e 03a5 693e 323a 143f
00000030: 4a44 473e f1a6 b43e c4ca 2d3f 42b7 913e
00000040: c8d7 4c3f 6bfc 113f abed 2b3e 02dc 7a3e
00000050: a4ea b93e 2ada ba3e e815 b23e b9d6 de3e
00000060: c683 a73e 8cc6 c63e 5388 b23e 152e 993e
00000070: bd8a 463e a302 d23e fead a13c de12 c83c
00000080: 84ab db3d ddd7 8d3e 43e2 e63e 458b c63e
00000090: c548 c63e 83bf a83e 97e5 4d3e 6568 223f
000000a0: 534d 213e 14aa 943e 29db bb3e 2918 7c3e
000000b0: 1a42 cd3e d0b3 883e b6d3 013b cf58 ca3e
000000c0: 439a 213f bbcc ca3e 9a11 c23e a7c7 9b3e
000000d0: 38e6 fe3e 0b29 e63e a5aa 783e 3a39 673e
000000e0: 4c84 ed3d 7cac f13e 3571 153e 0cb2 863e
000000f0: 2b9f b43e 8ba9 383e b883 933e 849f c6bc
00000100: 9794 8f3e 2fd5 f33e 1e53 a03e be33 213e
00000110: 7bb9 c4bd 888c 793e b1c2 b93e dd59 d73d
00000120: 3542 2f3e 6feb ffbd 74e3 ae3e 7e14 aa3e
00000130: b41f de3d 6717 923e cdd8 fe3e 166f 133f
00000140: 358d 0b3f c4cb 013f bc98 0d3e 8481 a43e
00000150: 54a6 95bd 2f9a fa3e 2a25 e93e 492f f03e
00000160: 3332 d43e cfb5 0d3e dc05 033f 08bc c93e
00000170: 8a66 ee3e 13aa 2b3d 519c e43e 0e00 763e
00000180: d530 0e3f ae2a ec3e 0a77 ae3e eed4 8a3d
00000190: b91e e93e 3c11 c23e ca21 023f 1925 693e
000001a0: a584 5c3e 57f4 143f 027b 5b3e b4d6 18be
000001b0: 2849 4d3e 3efa bf3e d514 373e 6029 d13e
000001c0: b7fe e93e 62ce 823e 6ac6 243e b517 ea3e
000001d0: f704 8c3e 2b2c 1a3e ef5a 863e b9e0 083e
000001e0: e1ef d83e b1f5 be3e cb25 e13e e77f be3e
000001f0: a5b9 b43e 987d 1a3f 9d2e 933e 9ddf a03e

sequential/dense_4/BiasAdd/ReadVariableOp f4 [256]
0.27380326 0.24007535 -0.29446077 -0.25151697 0.23421714 -0.5022964 0.020280099 0.12832499
0.28762633 -0.078280255 -0.31853515 -0.4566844 -0.10567026 -0.22953326 -0.48141763 0.4079087
0.20098709 0.25200218 0.025954833 0.31042057 0.08424848 -0.10790723 -0.01823561 -0.1962857
-0.24603148 -0.28706867 -0.042898234 0.102035284 0.0029114778 0.18827309 0.13703746 0.03394725
0.045818742 -0.035834268 -0.07731851 -0.16091335 -0.07002502 -0.30334714 -0.11839917 0.1854484
0.5104578 0.5487296 0.05232429 0.10520589 0.0020822035 0.031030353 0.052671716 -0.25798413
-0.035922393 0.28240246 -0.15631479 0.15638696 0.049060095 0.13880017 0.02388451 -0.0036875114
-0.1358315 0.15690698 -0.2210929 0.33624464 -0.018241731 0.03325546 0.31130454 -0.03836715
-0.54881537 0.2783094 0.07248635 0.08931186 -0.04187679 0.20996918 -0.07710055 0.35448843
0.1726518 -0.6128082 0.31460115 0.14818622 0.06543027 0.001445418 0.064445615 -0.006855222
0.42795613 0.07620357 -0.27586892 0.22526053 0.07708891 0.15908188 0.1818467 0.029577538
-0.34520316 -0.13499755 -0.53256726 -0.11538411 0.38882393 0.19079131 0.27670765 0.033658076
0.12508462 0.3129862 -0.44324267 0.49944142 -0.009107222 -0.046132743 -0.5135859 -0.39201355
0.03829331 -0.13194962 0.28315932 -0.33342427 -0.041967016 0.19535969 0.112798445 -0.11094447
-0.36403537 -0.11944242 0.1656116 0.24771658 0.20611368 0.07471603 0.53109545 0.12176875
0.37934023 0.17462449 0.018728735 0.30959794 0.07794769 0.2538607 0.24637555 0.022418518
0.05117816 0.048338998 -0.19393198 -0.43769294 0.10604159 -0.37734085 0.13342391 0.14707656
-0.08876593 0.38707426 0.41212043 0.011401769 -0.66843337 -0.195365 -0.12495853 -0.058631547
0.25683266 -0.17672496 -0.080679156 0.3670393 -0.04230151 -0.04975149 0.0113820145 0.1412108
-0.07652551 0.10560848 -0.077135816 0.018929988 0.6697764 0.1990411 0.19478278 0.01090277
-0.3578583 -0.048337042 0.30551034 0.30613992 0.3550499 0.1689374 -0.12605986 -0.15684177
0.1264571 0.123973526 0.3887446 -0.35830513 0.22313808 -0.20594272 0.18658996 -0.24468532
0.1522332 -0.11393369 -0.028671231 -0.17782491 0.0042907074 0.0062050233 -0.1809722 0.048008613
0.19871745 -0.18144324 0.035718404 -0.009652461 0.03471805 -0.19607349 0.049782965 0.1633956
0.13187665 -0.25485903 -0.08755458 -0.23896083 -0.107255846 0.2907231 -0.031428862 0.020831043
-0.0010614736 0.44343695 0.044259135 -0.28461245 -0.48672685 0.3250889 0.23705004 0.27002734
-0.41905516 -0.12547816 0.23559153 -0.21091343 0.01793387 -0.119617954 -0.054529324 0.13061292
0.41045702 -0.36502036 -0.10863011 -0.045847245 0.13938461 0.40670854 -0.03517137 -0.050511796
0.1317926 -0.16437623 0.31363538 0.10735623 -0.31712744 -0.08874229 0.16297083 -0.38262647
-0.18332781 0.111307725 0.21006985 0.14109363 -0.10638452 0.097276665 0.28915507 -0.035445265
-0.13350053 0.21993285 0.18721522 -0.17289585 -0.23868372 -0.2672904 0.30512652 0.045752227
-0.027690584 -0.23439066 0.33488467 0.41797993 0.10859658 -0.24206701 0.0699046 -0.059375755
00000000: f12f 8c3e 50d6 753e 90c3 96be d5c6 80be
00000010: 9ed6 6f3e 7f96 00bf 7322 a63c a067 033e
00000020: c243 933e 6651 a0bd 0a17 a3be 8ad2 e9be
00000030: a669 d8bd c40a 6bbe 5f7c f6be 69d9 d03e
00000040: 8fcf 4d3e 6e06 813e 3b9f d43c 72ef 9e3e
00000050: 788a ac3d 77fe dcbd d962 95bc 1eff 48be
00000060: adef 7bbe aafa 92be 0fb6 2fbd e0f7 d03d
00000070: 7ece 3e3b a9ca 403e 8c53 0c3e 460c 0b3d
00000080: 6fac 3b3d f4c6 12bd 2b59 9ebd 78c6 24be
00000090: 4769 8fbd 5150 9bbe 447b f2bd 2fe6 3d3e
000000a0: 5dad 023f 8b79 0c3f ff51 563d 3076 d73d
000000b0: 9475 083b 5e33 fe3c 4cbe 573d 7f16 84be
000000c0: 5c23 13bd 0e97 903e fc10 20be e723 203e
000000d0: 3df3 483d a221 0e3e 73a9 c33c 2daa 71bb
000000e0: 6a17 0bbe 39ac 203e 2d66 62be 4228 ac3e
000000f0: af6f 95bc e136 083d 4f63 9f3e df26 1dbd
00000100: 2a7f 0cbf 927e 8e3e b973 943d 23e9 b63d
00000110: ff86 2bbd 2902 573e e5e6 9dbd 827f b53e
00000120: a2cb 303e 00e1 1cbf 6713 a13e 21be 173e
00000130: 4e00 863d 2e74 bd3a 10fc 833d c5a1 e0bb
00000140: 111d db3e 9e10 9c3d b13e 8dbe b2aa 663e
00000150: cae0 9d3d 5ce6 223e 0536 3a3e 984c f23c
00000160: 78be b0be cc3c 0abe 5456 08bf 814e ecbd
00000170: ee13 c73e cc5e 433e a0ac 8d3e 0ddd 093d
00000180: 2f16 003e ba3f a03e b4f0 e2be c9b6 ff3e
00000190: 7536 15bc b0f5 3cbd 5e7a 03bf 00b6 c8be
000001a0: 72d9 1c3d cd1d 07be 42fa 903e 96b6 aabe
000001b0: 9be5 2bbd 5f0c 483e df02 e73d db36 e3bd
000001c0: d862 babe 3a9e f4bd 1696 293e 6aa9 7d3e
000001d0: 770f 533e b804 993d dff5 073f e561 f93d
000001e0: e238 c23e c3d0 323e 016d 993c 9f83 9e3e
000001f0: 0aa3 9f3d 08fa 813e df49 7c3e 0aa7 b73c
00000200: 31a0 513d 1dff 453d 1b96 46be 4a19 e0be
00000210: 552c d93d d232 c1be 47a0 083e 3d9b 163e
00000220: e9ca b5bd 992e c63e 7301 d33e 7cce 3a3c
00000230: 731e 2bbf c30d 48be 42ea ffbd a227 70bd
00000240: 927f 833e 63f7 34be 1d3b a5bd 93ec bb3e
00000250: 5944 2dbd 38c8 4bbd a17b 3a3c 9099 103e
00000260: 68b9 9cbd 4249 d83d 62f9 9dbd 1013 9b3c
00000270: 7776 2b3f 6ed1 4b3e 2375 473e 88a1 323c
00000280: 3439 b7be 10fd 45bd da6b 9c3e 5fbe 9c3e
00000290: 1ac9 b53e edfd 2c3e d615 01be 219b 20be
000002a0: f87d 013e d5e5 fd3d 8809 c73e c573 b7be
000002b0: 4f7e 643e a6e2 52be 7011 3f3e ca8e 7abe
000002c0: 05e3 1b3e 1156 e9bd eedf eabc bc17 36be
000002d0: 1099 8c3b 8253 cb3b c750 39be aea4 443d
000002e0: 967c 4b3e 42cc 39be 764d 123d 5b25 1ebc
000002f0: 8434 0e3d 7dc7 48be 39e9 4b3d 2d51 273e
00000300: ac0a 073e e27c 82be d14f b3bd 26b2 74be
00000310: f4a8 dbbd a8d9 943e 8dbb 00bd dda5 aa3c
00000320: 2521 8bba 2b0a e33e 1149 353d b9b8 91be
00000330: 4334 f9be 0d72 a63e 3fbd 723e 0641 8a3e
00000340: 668e d6be 597d 00be e83e 713e b1f9 57be
00000350: 0dea 923c 42fa f4bd 245a 5fbd 65bf 053e
00000360: 6c27 d23e f3e3 babe 7779 debd 52ca 3bbd
00000370: d7ba 0e3e 1a3c d03e db0f 10bd 75e5 4ebd
00000380: a4f4 063e 3e52 28be d194 a03e 95dd db3d
00000390: 875e a2be 85be b5bd d3e1 263e 9ee7 c3be
000003a0: 49ba 3bbe 4ef5 e33d 8d1c 573e d97a 103e
000003b0: 21e0 d9bd fd38 c73d 220c 943e 0e2f 11bd
000003c0: 5db4 08be 1436 613e 59b5 3f3e 9c0b 31be
000003d0: 8169 74be 4ada 88be 8b39 9c3e b066 3b3d
000003e0: 5dd7 e2bc 1b04 70be 0176 ab3e 7701 d63e
000003f0: e267 de3d 6ae0 77be 252a 8f3d fe33 73bd

sequential/dense_3/BiasAdd/ReadVariableOp f4 [512]
0.030286293 -0.35287923 -0.14488192 0.02486162 0.10156292 0.29292417 -0.026813475 0.22710976
0.284783 0.08414031 0.09349726 -0.1285953 -0.11098305 -0.30897394 -0.3676427 -0.08659704
0.062040724 -0.12975428 -0.06018703 -0.10324399 -0.16384181 -0.4046051 0.3047375 -0.054516148
0.005927867 -0.6528162 -0.09260094 -0.034074116 -0.0032320798 -0.2613225 0.03129608 0.2551594
0.0488605 -0.36384568 0.09761216 -0.03836601 -0.1968055 -0.10966226 0.044717386 0.054407954
0.2735062 -0.219677 -0.09693491 0.19855095 -0.36334628 0.1802728 0.2018062 -0.23550145
-0.013152484 0.035036944 0.08265826 0.000821392 -0.16592489 -0.014088913 0.09077752 0.13033013
-0.14097798 -0.0125782415 -0.41965693 -0.14164253 0.0012315339 0.07301985 0.21469197 -0.3499709
0.2714598 -0.3305915 0.09282992 -0.055427443 0.102488615 0.19320187 -0.25620446 -0.21468794
0.19033158 0.16136242 -0.3600175 -0.022146804 0.035107534 -0.28779617 -0.063008666 -0.4469173
0.11338731 -0.040423885 -0.026414983 -0.31803948 -0.56377155 -0.11034521 0.02799292 0.07428432
-0.15011844 -0.23366337 -0.28532928 -0.31464228 -0.2640892 0.14777449 -0.08076654 -0.09246495
-0.039323542 0.15111649 -0.1150798 0.01585636 -0.22083099 0.17911807 -0.08467955 -0.17281482
-0.20432268 -0.019811288 -0.20548503 -0.1561906 -0.39752534 0.082748346 -0.18633719 -0.2554784
-0.54710597 -0.09342807 0.12623928 -0.08750659 -0.16048408 0.154344 0.20870903 -0.014997973
-0.16517757 0.06926347 -0.4071145 0.0012022782 -0.3071823 -0.089837104 0.13841026 -0.08046897
0.21129885 0.08101127 -0.1017025 0.27432466 0.15008332 0.2704309 -0.003283082 0.19186392
-0.16549613 0.23552474 -0.09757672 -0.105103925 0.006041749 0.027428955 -0.14537603 0.18253872
0.06325379 -0.07043229 0.057029758 0.12124904 -0.19303605 0.21293093 0.1828047 -0.43830335
0.11993906 0.38537306 -0.3163907 -0.016761767 -0.19721757 0.16502228 0.04863747 -0.2144383
0.32757235 0.09403908 -0.085711 0.03311266 -0.38385543 0.4330396 0.032051876 0.047402743
-0.29863778 0.09723987 -0.48758957 -0.24187322 0.16781788 -0.17211843 -0.15657331 0.18118083
-0.17675766 0.13196196 -0.12771076 -0.67568237 0.3098974 -0.35354173 0.24331753 0.2728518
0.00075910374 -0.34090585 -0.15761112 -0.07680958 -0.36600032 0.111828074 -0.13487765 -0.17734663
-0.45790341 -0.08956688 -0.1384101 -0.6753912 0.05601263 0.019560257 0.2739359 0.19259878
0.014156496 -0.20730275 -0.2301535 -0.1689289 0.17730911 -0.19508141 0.116381034 -0.15631391
-0.17005043 -0.24452855 -0.09472564 -0.29977232 0.07354477 0.031740867 0.19845086 -0.021267531
-0.07954908 0.005569511 -0.1724469 0.13391055 -0.0645301 -0.16342701 -0.3365006 -0.15857661
0.03697217 0.33227983 0.013165562 -0.2254715 0.2528995 0.063168794 -0.17912684 0.059431862
0.23360679 -0.3662991 -0.099626385 -0.32691315 -0.016709862 -0.09923823 -0.5189947 -0.31809288
-0.42057073 0.06279773 -0.012303521 0.096298695 0.18313295 0.02583085 -0.35776266 0.015046937
-0.11976416 -0.14351162 -0.013477041 -0.10073037 0.007962211 -0.44516748 0.15427269 0.26447597
00000000: f61a f83c 96ac b4be ed5b 14be 99aa cb3c
00000010: 3800 d03d 28fa 953e efa7 dbbc 768f 683e
00000020: 14cf 913e c151 ac3d 7e7b bf3d 7cae 03be
00000030: 154b e3bd d531 9ebe aa3b bcbe ca59 b1bd
00000040: 6a1e 7e3d 4ede 04be ad86 76bd 9671 d3bd
00000050: 26c6 27be 6628 cfbe 8e06 9c3e 534c 5fbd
00000060: 8d3e c23b f61e 27bf 90a5 bdbd 4d91 0bbd
00000070: 4dd1 53bb 10cc 85be 5230 003d 41a4 823e
00000080: f321 483d fb49 babe e2e8 c73d ad25 1dbd
00000090: 6287 49be 9b96 e0bd 9429 373d e0da 5e3d
000000a0: 0109 8c3e 02f3 60be cf85 c6bd f150 4b3e
000000b0: 8608 babe 6f99 383e 49a6 4e3e 4b27 71be
000000c0: 847d 57bc e682 0f3d bc48 a93d af52 573a
000000d0: 37e8 29be 2fd5 66bc 90e9 b93d 4375 053e
000000e0: 885c 10be f814 4ebc 46dd d6be bd0a 11be
000000f0: 6c6b a13a 6e8b 953d 36d8 5b3e 632f b3be
00000100: c7fc 8a3e 4a43 a9be 9d1d be3d e307 63bd
00000110: 8de5 d13d b6d6 453e 3b2d 83be 28d7 5bbe
00000120: 48e6 423e 313c 253e 3754 b8be 376d b5bc
00000130: ebcc 0f3d 055a 93be b00a 81bd 58d2 e4be
00000140: 9b37 e83d 8493 25bd 3c64 d8bc 12d6 a2be
00000150: 5553 10bf abfc e1bd 6851 e53c 6122 983d
00000160: a6b8 19be 7345 6fbe ae16 92be cb18 a1be
00000170: b336 87be 3252 173e ed68 a5bd 445e bdbd
00000180: b911 21bd 48be 1a3e f5ae ebbd 32e5 813c
00000190: 8521 62be ba6a 373e 796c adbd 5ef6 30be
000001a0: f739 51be 484b a2bc ab6a 52be 6ef0 1fbe
000001b0: 7188 cbbe f777 a93d 2dcf 3ebe 11ce 82be
000001c0: 230f 0cbf 3757 bfbd df44 013e a836 b3bd
000001d0: f055 24be 5b0c 1e3e d2b7 553e 0fba 75bc
000001e0: 4f24 29be 02da 8d3d 5071 d0be c395 9d3a
000001f0: 0047 9dbe 84fc b7bd 6bbb 0d3e eacc a4bd
00000200: ba5e 583e 3de9 a53d 6649 d0bd 4874 8c3e
00000210: 71af 193e eb75 8a3e fa28 57bb fa77 443e
00000220: d177 29be 662d 713e 4ed6 c7bd ba40 d7bd
00000230: ddf9 c53b b0b2 e03c 74dd 14be 6eeb 3a3e
00000240: 348b 813d ce3e 90bd 0998 693d 6b51 f83d
00000250: 3eab 45be 910a 5a3e 2831 3b3e 4c69 e0be
00000260: 9ca2 f53d 9e4f c53e f6fd a1be f94f 89bc
00000270: 67f3 49be 9afb 283e 1538 473d b795 5bbe
00000280: 90b7 a73e 9097 c03d 4089 afbd 24a1 073d
00000290: b388 c4be 5eb7 dd3e d448 033d 6129 423d
000002a0: 0de7 98be b225 c73d 57a5 f9be 9dad 77be
000002b0: 73d8 2b3e d03f 30be c154 20be 7887 393e
000002c0: f6ff 34be 0921 073e 9cc6 02be 85f9 2cbf
000002d0: dfaa 9e3e 6c03 b5be 3b28 793e 3bb3 8b3e
000002e0: 97fe 463a 368b aebe cf64 21be 574e 9dbd
000002f0: 6564 bbbe 1e06 e53d 5e1d 0abe 5b9a 35be
00000300: 5172 eabe d76e b7bd 61bb 0dbe 70e6 2cbf
00000310: 806d 653d d53c a03c 5441 8c3e 9d38 453e
00000320: a6f0 673c 2c47 54be 5cad 6bbe b3fb 2cbe
00000330: 8590 353e 6cc3 47be 2e59 ee3d c110 20be
00000340: b321 2ebe b165 7abe 84ff c1bd c27b 99be
00000350: a49e 963d b602 023d b436 4b3e 3f39 aebc
00000360: a1ea a2bd 7280 b63b ec95 30be d91f 093e
00000370: 5b28 84bd 6959 27be cf49 acbe e861 22be
00000380: 2170 173d 9520 aa3e 5fb4 573c 00e2 66be
00000390: 0b7c 813e a45e 813d 076d 37be d36e 733d
000003a0: 9e36 6f3e 8e8b bbbe eb08 ccbd 2961 a7be
000003b0: 1fe3 88bc 6a3d cbbd d6dc 04bf 12dd a2be
000003c0: 0c55 d7be 199c 803d b594 49bc 4038 c53d
000003d0: 3487 3b3e 389b d33c ab2c b7be 6e87 763c
000003e0: e946 f5bd b6f4 12be cfce 5cbc b94b cebd
000003f0: ef73 023c feec e3be a9f9 1d3e 6569 873e

sequential/dense_2/BiasAdd/ReadVariableOp f4 [512]
-0.00181915 -0.104873575 -0.1730012 0.12816855 -0.12291119 -0.31169724 -0.119343355 0.039042875
-0.121462725 0.05545534 -0.01046913 0.022425951 -0.43095934 -0.1730597 -0.23043595 -0.31000784
-0.39598095 0.2190059 -0.07547318 0.084641874 -0.0063009076 -0.09829495 -0.27195013 -0.832447
-0.13697088 -0.23903486 -0.026718287 0.11228066 -0.27803805 -0.21867518 -0.049721673 -0.03202639
0.30628532 -0.08741545 -0.13140501 -0.118413545 -0.34036505 0.0683629 0.10120517 0.13640946
-0.053356368 0.15596808 -0.17802116 0.15775989 0.25682843 -0.01804757 0.34729928 -0.05599448
-0.34759265 -0.34098238 -0.33930615 0.02594262 -0.11446738 0.17782052 -0.032430522 -0.73257333
-0.30005917 -0.11371297 0.339708 -0.06396038 -0.26186606 -0.08023623 -0.036599487 0.23972814
0.6023383 0.049020912 -0.043534797 -0.005724556 -0.50493366 -0.51069283 -0.18404222 0.17013763
0.012244875 -0.070157826 -0.3742286 -0.05345206 -0.04825251 0.09919164 -0.019109763 0.072792985
-0.1396156 0.06570358 -0.14920868 0.30532116 -0.32125005 0.014405983 -0.18678446 -0.15361838
-0.23664185 0.48306885 0.31752598 -0.027535912 0.28615522 -0.37604976 -0.17647222 -0.2091951
0.013050284 -0.048566513 0.46055022 -0.20338745 -0.08928903 0.4877082 -0.15044855 -0.093469925
-0.3595622 0.12717828 0.34759322 -0.3411873 -0.39418966 -0.10260002 -0.34574544 -0.07095126
-0.26081237 -0.25384364 -0.0053424714 0.14161251 0.026347809 -0.03254431 0.015424566 -0.19504687
-0.3260268 -0.1151397 -0.17780755 0.1257554 0.27172682 0.025990808 -0.34323657 -0.17654605
-0.04258474 0.16260493 -0.20706108 0.0929927 0.09468651 -0.25631654 -0.07287558 -0.26554444
-0.13879913 -0.1079887 -0.06336352 -0.06186769 -0.32798365 -0.20969705 -0.11012074 -0.21445848
0.07434344 -0.17558576 -0.13344014 0.03541203 -0.054542646 0.4070673 -0.21075854 -0.06620545
-0.5852802 -0.20806715 -0.11263199 -0.033719223 -0.1975385 0.489729 -0.10213502 0.010606714
-0.27779418 0.11585716 0.039588947 -0.30808875 -0.08802006 -0.048511647 -0.06257291 -0.27472496
0.094834246 -0.06925639 -0.31187114 -0.14339863 -0.17348959 -0.031312652 0.09390155 -0.13085791
-0.13321956 0.05983419 0.025056954 -0.15812097 -0.072703406 -0.049790822 -0.14048171 0.058737624
-0.0708943 -0.34809792 0.09228669 -0.30805787 -0.26071507 -0.08419178 0.6333608 -0.18303844
-0.079857185 0.051345192 0.13768528 0.16993178 -0.3295974 -0.11761235 0.19102007 -0.49306032
0.033985954 -0.19450408 -0.43173054 -0.22369309 0.09243988 -0.10902497 -0.0016077374 -0.18694836
0.42905694 0.183926 0.07949968 -0.018217737 0.52526385 0.22612444 0.020656176 -0.38288304
-0.22034071 -0.14256403 -0.10170151 0.18719555 -0.44187123 0.30681145 0.002145792 0.042597093
-0.27653092 0.07510791 -0.11727194 -0.5523184 0.035542827 -0.2403019 -0.6663242 -0.19268733
-0.22426836 -0.13697761 -0.061714333 -0.2832985 -0.07924844 -0.2758832 -0.055160895 0.020135107
-0.2567361 -0.3961408 -0.14919958 -0.53230566 -0.11124264 0.015380696 -0.23151512 -0.041983124
-0.14653619 -0.06833081 -0.2720605 0.07574395 -0.17251897 0.0043647825 0.12537348 -0.011736988
00000000: 8c70 eeba f5c7 d6bd 3a27 31be 9e3e 033e
00000010: ddb8 fbbd c896 9fbe 4a6a f4bd 6ceb 1f3d
00000020: 73c1 f8bd 2325 633d b786 2bbc a1b6 b73c
00000030: b4a6 dcbe 9036 31be 67f7 6bbe 59b9 9ebe
00000040: 04be cabe 1543 603e af91 9abd b858 ad3d
00000050: d877 cebb dd4e c9bd 0c3d 8bbe 3f1b 55bf
00000060: 1842 0cbe 8ec5 74be 4fe0 dabc 67f3 e53d
00000070: 015b 8ebe 63ec 5fbe f4a8 4bbd 1b2e 03bd
00000080: 6ed1 9c3e df06 b3bd 098f 06be cd82 f2bd
00000090: 5444 aebe d901 8c3d a844 cf3d ecae 0b3e
000000a0: 358c 5abd 19b6 1f3e 2e4b 36be cf8b 213e
000000b0: 047f 833e 7fd8 93bc 36d1 b13e 785a 65bd
000000c0: aaf7 b1be 3e95 aebe 89b9 adbe 9e85 d43c
000000d0: e06d eabd 9516 363e ded5 04bd ed89 3bbf
000000e0: 5ba1 99be 58e2 e8bd 35ee ad3e a9fd 82bd
000000f0: 4f13 86be e452 a4bd 58e9 15bd 4b7b 753e
00000100: d832 1a3f 27ca 483d 8b51 32bd 0e95 bbbb
00000110: 5543 01bf c4bc 02bf 9075 3cbe 8f38 2e3e
00000120: ba9e 483c e8ae 8fbd e49a bfbe 8cf0 5abd
00000130: 6da4 45bd fd24 cb3d 148c 9cbc 7d14 953d
00000140: 64f7 0ebe 998f 863d 29ca 18be 0e53 9c3e
00000150: e37a a4be 1207 6c3c 6d44 3fbe 234e 1dbe
00000160: 3e52 72be cd54 f73e c492 a23e fe92 e1bc
00000170: f082 923e 9889 c0be 22b5 34be 3e37 56be
00000180: dcd0 553c aeed 46bd 3dcd eb3e cd44 50be
00000190: 2bdd b6bd e4b4 f93e 2f0f 1abe 296d bfbd
000001a0: 8918 b8be 063b 023e bdf7 b13e 1ab0 aebe
000001b0: 3ad3 c9be f61f d2bd 8c05 b1be e54e 91bd
000001c0: 3389 85be cbf7 81be e60f afbb df02 113e
000001d0: 5cd7 d73c 2f4d 05bd 52b7 7c3c 5eba 47be
000001e0: fcec a6be 5dce ebbd 2f13 36be 06c6 003e
000001f0: c71f 8b3e adea d43c b4bc afbe 7dc8 34be
00000200: 566d 2ebd e881 263e d207 54be f572 be3d
00000210: 00eb c13d ec3b 83be cb3f 95bd 71f5 87be
00000220: 5c21 0ebe 2e29 ddbd bcc4 81bd fa68 7dbd
00000230: 79ed a7be d3ba 56be fc86 e1bd 019b 5bbe
00000240: 6041 983d c1cc 33be 88a4 08be 340c 113d
00000250: 1c68 5fbd 206b d03e 16d1 57be b996 87bd
00000260: ecd4 15bf 8e0f 55be 9aab e6bd 2b1d 0abd
00000270: 8847 4abe c2bd fa3e 2a2c d1bd c8c7 2d3c
00000280: 0a3b 8ebe 8546 ed3d 0528 223d cfbd 9dbe
00000290: dc43 b4bd 26b4 46bd 3a26 80bd c0a8 8cbe
000002a0: 7538 c23d 4bd6 8dbd 93ad 9fbe 17d7 12be
000002b0: 41a7 31be b241 00bd 754f c03d 9eff 05be
000002c0: b56a 08be b214 753d 3e44 cd3c 77ea 21be
000002d0: 86e5 94bd 76f1 4bbd 70da 0fbe dd96 703d
000002e0: 0831 91bd e439 b2be ce00 bd3d c3b9 9dbe
000002f0: 727c 85be bd6c acbd ef23 223f 6e6e 3bbe
00000300: 2a8c a3bd 564f 523d 5ffd 0c3e 9902 2e3e
00000310: fec0 a8be bede f0bd c49a 433e 6772 fcbe
00000320: db34 0b3d 142c 47be c90b ddbe cd0f 65be
00000330: 1f51 bd3d 7c48 dfbd b7ba d2ba 646f 3fbe
00000340: 5aad db3e 1957 3c3e bad0 a23d 5d3d 95bc
00000350: b177 063f 2a8d 673e 2437 a93c 3f09 c4be
00000360: ffa0 61be 4efc 11be e248 d0bd 31b0 3f3e
00000370: f23c e2be 6416 9d3e 6aa0 0c3b 4a7a 2e3d
00000380: 7695 8dbe 2dd2 993d 452c f0bd bd64 0dbf
00000390: 5b95 113d b411 76be 3994 2abf d44f 45be
000003a0: 9ba6 65be dc43 0cbe 2bc8 7cbd 800c 91be
000003b0: 024d a2bd 9040 8dbe 64f0 61bd 61f2 a43c
000003c0: ea72 83be f8d2 cabe c6c7 18be 2f45 08bf
000003d0: 2ed3 e3bd 51ff 7b3c 4d12 6dbe 7ff6 2bbd
000003e0: 950d 16be 06f1 8bbd 844b 8bbe a51f 9b3d
000003f0: d0a8 30be 7306 8f3b e861 003e 7f4c 40bc

sequential/dense_1/BiasAdd/ReadVariableOp f4 [256]
-0.02419463 -0.6574785 -0.3600579 -0.06935919 -0.17164126 -0.032378122 -0.050734974 -0.16903302
0.036521636 -0.0830074 0.1880707 -0.68218607 -0.061306994 0.054211207 -0.007845517 -0.2858633
0.1800379 0.024143342 -0.0572911 0.49470067 -0.04383412 -0.13950612 -0.0030025914 0.107892066
-0.047287345 -0.085307404 -0.052891497 0.044085417 -0.075166896 -0.056175735 0.3628992 -0.18929765
-0.006189185 -0.22765921 -0.13033767 -0.09002444 -0.20420209 -0.044341806 -0.30589035 -0.035380106
-0.10169313 -0.25696862 -0.10027594 -0.065501876 -0.09429301 0.13590877 -0.23180924 -0.295107
-0.049525615 -0.15542117 -0.09314567 0.0016205342 -0.047406405 0.007332273 -0.053698473 -0.057450067
-0.02563491 0.1422104 0.10068337 -0.06555529 -0.3341672 0.058031023 -0.1713624 -0.020383844
-0.3833106 -0.1360571 -0.2302618 0.2273521 -0.03482147 -0.10063672 -0.06826864 0.046565574
-0.18916492 -0.35032052 -0.10133116 -0.07467129 0.1819465 0.13627808 0.004555316 -0.08272672
0.096727684 -0.05768847 -0.28269532 -0.25850523 -0.10173208 -0.32778844 -0.12875095 -0.3711589
-0.10113737 -0.19012766 0.056865748 -0.0038816202 0.21505103 -0.03059606 -0.10023529 -0.045671757
-0.08063752 0.09201878 -0.16124044 0.14967738 -0.120539695 0.022980018 -0.25000787 0.1578887
0.032717973 -0.16657592 -0.14780661 -0.033488885 -0.31270558 -0.05458204 0.33957756 -0.012147702
-0.024189975 -0.19329663 -0.3776816 -0.09142449 -0.2075154 -0.016864482 -0.2103502 -0.21479781
0.1413418 0.014378752 -0.1062989 0.023910133 0.066851676 -0.09042025 0.2881717 -0.15371531
-0.078036904 -0.25017545 -0.15008722 -0.14359751 -0.12735265 -0.073936895 -0.17769922 0.029317841
-0.034992073 0.0029004817 0.11962009 -0.127911 -0.11517789 -0.027921766 -0.22222102 -0.04538192
0.029673351 -0.14607292 -0.19950718 0.14414756 -0.3522377 -0.021149293 -0.03311946 -0.15078458
0.24231635 -0.2190074 0.0323123 -0.35149157 -0.099312335 0.25139034 -0.31661752 -0.41231465
-0.086863875 -0.004077323 0.07615008 -0.0050268206 0.08655038 -0.37057358 -0.07935986 0.07294098
-0.099335715 -0.046614252 -0.061434217 0.06532087 -0.29724684 0.04960853 0.34419686 -0.08915946
-0.42626572 -0.01825776 -0.15721378 -0.2528652 -0.2660079 -0.56436104 -0.31745246 0.110421926
0.7148649 -0.068204574 -0.121528864 -0.085783504 2.0899357e-05 0.06471886 0.0025702661 0.042762846
0.05815976 -0.05757427 -0.24738088 -0.20594689 -0.121430606 0.1269173 -0.06381282 0.13159245
-0.278399 -0.15749997 -0.100221835 -0.046146464 -0.16944778 0.041303765 -0.05692502 -0.22308019
0.10065702 -0.2661271 -0.19153889 -0.07069384 0.03954452 -0.114516184 0.26408085 -0.06504397
-0.05712862 -0.23755927 -0.20715602 -0.048555467 0.20497787 -0.17656346 -0.04171456 -0.13679224
-0.056134008 -0.103404224 0.0047329557 -0.06728447 0.12982386 -0.05163635 0.03303804 0.48229438
-0.04935814 -0.23978099 -0.029868761 0.069792725 0.09535465 -0.24445084 0.14368874 0.066929705
-0.08501229 -0.044133246 -0.023995332 -0.105830826 0.037642505 0.05071069 -0.0043096575 -0.2529306
-0.18207029 -0.15644011 -0.052239444 -0.18179625 -0.105973415 -0.15482885 -0.27145573 0.054314278
00000000: d133 c6bc 8350 28bf 8259 b8be 310c 8ebd
00000010: bac2 2fbe ec9e 04bd 7acf 4fbd fe16 2dbe
00000020: b697 153d c9ff a9bd 9b95 403e bfa3 2ebf
00000030: 0b1d 7bbd 920c 5e3d 7c8a 00bc ad5c 92be
00000040: db5b 383e 42c8 c53c 13aa 6abd 6849 fd3e
00000050: 688b 33bd b1da 0ebe 20c7 44bb 84f6 dc3d
00000060: 60b0 41bd a6b5 aebd c1a4 58bd e992 343d
00000070: 1af1 99bd 8718 66bd edcd b93e 3ed7 41be
00000080: a6ce cabb 7f1f 69be 3d77 05be bc5e b8bd
00000090: 5a1a 51be c19f 35bd a99d 9cbe bbea 10bd
000000a0: 7d44 d0bd 6491 83be 795d cdbd d925 86bd
000000b0: b21c c1bd ab2b 0b3e 675f 6dbe 4418 97be
000000c0: 5fdb 4abd ba26 1fbe 28c3 bebd 1b68 d43a
000000d0: 382d 42bd 9043 f03b eef2 5bbd c350 6bbd
000000e0: 4e00 d2bc 9a9f 113e 1533 ce3d da41 86bd
000000f0: f717 abbe f0b1 6d3d a079 2fbe 05fc a6bc
00000100: 4941 c4be 8d52 0bbe c0c9 6bbe fdce 683e
00000110: f5a0 0ebd a01a cebd 6ed0 8bbd 8bbb 3e3d
00000120: 73b4 41be 365d b3be b686 cfbd 43ed 98bd
00000130: 2f50 3a3e 7b8c 0b3e c344 953b a06c a9bd
00000140: 2a19 c63d bf4a 6cbd 71bd 90be cc5a 84be
00000150: e958 d0bd e3d3 a7be 4ad7 03be 8a08 bebe
00000160: 1c21 cfbd d3b0 42be 0fec 683d c862 7ebb
00000170: 5636 5c3e 97a4 fabc 2948 cdbd 4f12 3bbd
00000180: 4925 a5bd 5874 bc3d 371c 25be 0745 193e
00000190: 84dd f6bd 9740 bc3c 0801 80be 93ad 213e
000001a0: 4803 063d e192 2abe 9e5a 17be a42b 09bd
000001b0: f21a a0be 6b91 5fbd 1cdd ad3e 2807 47bc
000001c0: 0e2a c6bc 8def 45be 7c5f c1be c33c bbbd
000001d0: eb7e 54be 6227 8abc 0b66 57be f5f3 5bbe
000001e0: e8bb 103e db94 6b3c 3db3 d9bd 2fdf c33c
000001f0: 88e9 883d 412e b9bd 3e8b 933e 8c67 1dbe
00000200: d0d1 9fbd ff16 80be 77b0 19be 3a0b 13be
00000210: bc68 02be 3a6c 97bd c9f6 35be f82b f03c
00000220: d953 0fbd 0216 3e3b 61fb f43d 1afb 02be
00000230: 63e2 ebbd 30bc e4bc e88d 63be 64e2 39bd
00000240: 8715 f33c 2494 15be 9c4b 4cbe 6b9b 133e
00000250: 8058 b4be 4841 adbc 45a8 07bd 4667 1abe
00000260: c721 783e 7a43 60be e759 043d b4f6 b3be
00000270: 4464 cbbd 3cb6 803e b11b a2be e81a d3be
00000280: b0e5 b1bd 109b 85bb 93f4 9b3d 07b8 a4bb
00000290: 5341 b13d d2bb bdbe 6c87 a2bd 1562 953d
000002a0: 8670 cbbd 96ee 3ebd 72a2 7bbd f3c6 853d
000002b0: bd30 98be 5032 4b3d 923a b03e 3c99 b6bd
000002c0: 803f dabe 4c91 95bc a6fc 20be 8c77 81be
000002d0: 3032 88be f779 10bf 2189 a2be e424 e23d
000002e0: 6301 373f d7ae 8bbd 20e4 f8bd 43af afbd
000002f0: 0751 af37 528b 843d e971 283b 1828 2f3d
00000300: ee38 6e3d ffd2 6bbd 6a51 7dbe bee3 52be
00000310: 9cb0 f8bd 9cf6 013e 4cb0 82bd 2cc0 063e
00000320: 508a 8ebe ac47 21be 1b41 cdbd 1304 3dbd
00000330: b883 2dbe 232e 293d 362a 69bd 226f 64be
00000340: 4525 ce3d d041 88be c522 44be efc7 90bd
00000350: 6ff9 213d 7687 eabd 9b35 873e c635 85bd
00000360: b3ff 69bd bd42 73be b520 54be 19e2 46bd
00000370: b8e5 513e 0dcd 34be e3dc 2abd 4413 0cbe
00000380: c6ec 65bd 98c5 d3bd e916 9b3b 71cc 89bd
00000390: 8cf0 043e a380 53bd e552 073d 4aef f63e
000003a0: c32b 4abd 2689 75be 55af f4bc 7def 8e3d
000003b0: 4c49 c33d 5251 7abe 2423 133e 7112 893d
000003c0: ec1a aebd 10c5 34bd dc91 c4bc d5bd d8bd
000003d0: 072f 1a3d 03b6 4f3d 0738 8dbb 1f80 81be
000003e0: a270 3abe d631 20be 07f9 55bd cc28 3abe
000003f0: 9708 d9bd 748b 1ebe 3ffc 8abe a678 5e3d

sequential/dense/MatMul i1 [128, 42] scale=0.012578318 zero_point=0
0.025156636 -0.08804823 -0.18867476 0.08804823 0.23898804 -0.012578318 0.276723 -0.15093982
-0.5282894 -0.31445795 -0.08804823 0.025156636 -0.25156635 -0.037734956 0.10062654 -0.10062654
0.22640972 -0.33961457 -0.05031327 0.0 -0.08804823 0.012578318 -0.17609645 -0.05031327
0.23898804 0.23898804 0.12578318 0.12578318 0.0 0.05031327 -0.16351813 -0.05031327
0.037734956 0.18867476 0.0 -0.07546991 0.07546991 0.05031327 0.16351813 0.07546991
-0.23898804 0.11320486 0.012578318 -0.15093982 -0.11320486 0.037734956 0.08804823 0.037734956
0.012578318 -0.012578318 -0.07546991 -0.025156636 0.11320486 0.12578318 0.11320486 0.0
-0.12578318 0.037734956 -0.05031327 0.06289159 -0.025156636 0.012578318 -0.012578318 0.08804823
0.05031327 0.08804823 -0.012578318 0.05031327 -0.025156636 0.025156636 0.012578318 0.15093982
0.012578318 0.18867476 0.1383615 -0.10062654 0.12578318 0.18867476 -0.012578318 -1.0817354
0.037734956 0.1383615 -0.31445795 0.22640972 -0.08804823 0.16351813 -0.15093982 -0.12578318
-0.025156636 0.037734956 0.1383615 -0.44024113 -0.6037593 0.72954243 0.025156636 -0.08804823
0.18867476 0.0 0.10062654 -0.08804823 0.38992786 0.21383141 -0.17609645 -0.06289159
-0.12578318 -0.10062654 -0.12578318 -0.1383615 -0.07546991 -0.15093982 -0.012578318 0.07546991
-0.12578318 0.012578318 0.06289159 -0.22640972 -0.025156636 -0.1383615 0.08804823 -0.1383615
0.07546991 -0.06289159 0.12578318 0.20125309 -0.05031327 -0.20125309 -0.15093982 0.025156636
-0.20125309 0.05031327 -0.17609645 0.0 0.36477122 0.40250617 -0.41508448 0.1383615
-0.25156635 -0.025156636 -0.23898804 0.0 0.66665083 -0.17609645 -0.2641447 -0.17609645
-0.07546991 -0.12578318 -0.08804823 -0.06289159 0.11320486 -0.10062654 -0.05031327 -0.10062654
0.20125309 -0.08804823 0.07546991 -0.12578318 0.025156636 -0.06289159 0.025156636 0.16351813
0.17609645 0.07546991 0.037734956 0.037734956 -0.025156636 0.06289159 -0.20125309 -0.33961457
-0.05031327 -0.037734956 0.21383141 -0.38992786 -0.06289159 -0.11320486 -0.05031327 0.22640972
-0.276723 0.17609645 0.17609645 0.12578318 0.31445795 -0.11320486 -0.07546991 -0.07546991
-0.4905544 0.10062654 0.45281944 -0.11320486 0.07546991 -0.05031327 -0.21383141 -0.07546991
-0.2641447 -0.037734956 0.16351813 0.037734956 0.23898804 -0.10062654 0.30187964 -0.1383615
0.17609645 0.276723 -0.037734956 0.037734956 0.18867476 -0.15093982 0.12578318 -0.15093982
0.16351813 -0.23898804 0.05031327 0.012578318 -0.25156635 -0.012578318 -0.30187964 0.0
-0.012578318 -0.5911809 -0.12578318 0.20125309 -0.15093982 -0.10062654 -0.17609645 0.025156636
0.012578318 0.16351813 0.37734953 0.16351813 -0.06289159 0.08804823 -0.037734956 0.06289159
0.10062654 0.0 0.012578318 -0.12578318 0.12578318 -0.2893013 0.12578318 -0.025156636
0.15093982 0.025156636 0.10062654 0.16351813 0.17609645 0.15093982 0.0 0.07546991
-0.06289159 -0.33961457 -0.25156635 -0.17609645 -0.15093982 0.16351813 -0.07546991 0.11320486
00000000: 02f9 f107 13ff 16f4 d6e7 f902 ecfd 08f8
00000010: 12e5 fc00 f901 f2fc 1313 0a0a 0004 f3fc
00000020: 030f 00fa 0604 0d06 ed09 01f4 f703 0703
00000030: 01ff fafe 090a 0900 f603 fc05 fe01 ff07
00000040: 0407 ff04 fe02 010c 010f 0bf8 0a0f ffaa
00000050: 030b e712 f90d f4f6 fe03 0bdd d03a 02f9
00000060: 0f00 08f9 1f11 f2fb f6f8 f6f5 faf4 ff06
00000070: f601 05ee fef5 07f5 06fb 0a10 fcf0 f402
00000080: f004 f200 1d20 df0b ecfe ed00 35f2 ebf2
00000090: faf6 f9fb 09f8 fcf8 10f9 06f6 02fb 020d
000000a0: 0e06 0303 fe05 f0e5 fcfd 11e1 fbf7 fc12
000000b0: ea0e 0e0a 19f7 fafa d908 24f7 06fc effa
000000c0: ebfd 0d03 13f8 18f5 0e16 fd03 0ff4 0af4
000000d0: 0ded 0401 ecff e800 ffd1 f610 f4f8 f202
000000e0: 010d 1e0d fb07 fd05 0800 01f6 0ae9 0afe
000000f0: 0c02 080d 0e0c 0006 fbe5 ecf2 f40d fa09

sequential/dense_1/MatMul i1 [256, 128] scale=0.0137625355 zero_point=0
0.068812676 -0.28901324 -0.13762535 -0.0137625355 0.0 -0.12386282 0.04128761 -0.09633775
0.0137625355 0.12386282 0.0 -0.027525071 -0.027525071 -0.068812676 0.09633775 -0.068812676
0.12386282 -0.30277577 -0.0137625355 -0.44040114 -0.12386282 0.027525071 -0.110100284 -0.04128761
-0.027525071 -0.0137625355 -0.16515043 -0.09633775 0.16515043 0.110100284 -0.13762535 -0.068812676
-0.04128761 -0.110100284 -0.12386282 0.027525071 -0.35782593 -0.24772564 0.068812676 0.22020057
0.110100284 -0.1926755 -0.2752507 0.027525071 -0.0137625355 -0.13762535 -0.055050142 -0.0137625355
-0.08257522 -0.055050142 -0.055050142 -0.45416367 -0.0137625355 0.1926755 0.1926755 0.0
0.08257522 -0.0137625355 -0.09633775 -0.17891297 -0.20643803 0.09633775 -0.17891297 -0.385351
-0.08257522 0.068812676 -0.45416367 -0.110100284 -0.82575214 -0.09633775 -0.16515043 -0.28901324
-0.2339631 -0.17891297 -0.09633775 0.16515043 -0.2339631 0.13762535 0.068812676 -0.09633775
0.0137625355 0.110100284 0.0137625355 -0.3165383 -0.09633775 -0.068812676 -0.13762535 -0.068812676
0.35782593 -0.2339631 0.08257522 -0.068812676 -0.15138789 -0.16515043 -0.0137625355 0.4266386
0.16515043 -0.027525071 0.04128761 -0.09633775 0.04128761 -0.22020057 0.027525071 0.12386282
0.055050142 -0.13762535 -0.15138789 0.068812676 -0.2752507 -0.24772564 -0.08257522 -0.1926755
0.0137625355 -0.055050142 -0.110100284 -0.22020057 0.0 -0.28901324 -0.22020057 -0.068812676
0.12386282 -0.110100284 0.1926755 -0.30277577 0.04128761 0.0137625355 -0.027525071 -0.08257522
0.0 -0.12386282 -0.3165383 -0.17891297 0.04128761 -0.068812676 -0.30277577 0.08257522
-0.30277577 -0.2339631 -0.12386282 0.08257522 0.068812676 0.09633775 0.0137625355 -0.3440634
0.17891297 -0.7569395 -0.16515043 -0.2752507 0.110100284 0.110100284 -0.2339631 0.055050142
0.09633775 0.28901324 0.027525071 -0.30277577 0.04128761 0.110100284 0.15138789 0.15138789
-0.22020057 -0.110100284 0.12386282 0.17891297 -0.055050142 -0.15138789 0.055050142 0.08257522
-0.08257522 0.0137625355 -0.22020057 0.0137625355 0.055050142 -0.28901324 -0.110100284 0.22020057
0.15138789 -0.22020057 0.09633775 0.08257522 0.16515043 -0.28901324 0.0 0.09633775
-0.027525071 0.055050142 0.09633775 -0.110100284 0.0137625355 0.13762535 0.09633775 0.04128761
-0.08257522 -0.2752507 -0.068812676 0.110100284 -0.41287607 -0.17891297 -0.13762535 0.055050142
-0.055050142 -0.33030087 -0.2752507 -0.08257522 0.12386282 0.16515043 0.15138789 0.08257522
0.16515043 0.0137625355 0.15138789 0.24772564 0.15138789 0.068812676 -0.110100284 -0.08257522
0.04128761 -0.2752507 -0.30277577 0.13762535 -0.110100284 0.26148817 -0.45416367 0.13762535
-0.110100284 -0.055050142 -0.12386282 -0.09633775 -0.20643803 0.0 -0.13762535 0.1926755
0.04128761 -0.26148817 -0.15138789 0.0137625355 -0.12386282 -0.33030087 -0.0137625355 0.055050142
0.055050142 0.04128761 0.08257522 -0.0137625355 -0.3165383 -0.0137625355 0.15138789 0.2339631
-0.055050142 -0.16515043 -0.068812676 -0.0137625355 0.09633775 0.0 0.1926755 0.0
00000000: 05eb f6ff 00f7 03f9 0109 00fe fefb 07fb
00000010: 09ea ffe0 f702 f8fd feff f4f9 0c08 f6fb
00000020: fdf8 f702 e6ee 0510 08f2 ec02 fff6 fcff
00000030: fafc fcdf ff0e 0e00 06ff f9f3 f107 f3e4
00000040: fa05 dff8 c4f9 f4eb eff3 f90c ef0a 05f9
00000050: 0108 01e9 f9fb f6fb 1aef 06fb f5f4 ff1f
00000060: 0cfe 03f9 03f0 0209 04f6 f505 ecee faf2
00000070: 01fc f8f0 00eb f0fb 09f8 0eea 0301 fefa
00000080: 00f7 e9f3 03fb ea06 eaef f706 0507 01e7
00000090: 0dc9 f4ec 0808 ef04 0715 02ea 0308 0b0b
000000a0: f0f8 090d fcf5 0406 fa01 f001 04eb f810
000000b0: 0bf0 0706 0ceb 0007 fe04 07f8 010a 0703
000000c0: faec fb08 e2f3 f604 fce8 ecfa 090c 0b06
000000d0: 0c01 0b12 0b05 f8fa 03ec ea0a f813 df0a
000000e0: f8fc f7f9 f100 f60e 03ed f501 f7e8 ff04
000000f0: 0403 06ff e9ff 0b11 fcf4 fbff 0700 0e00

sequential/dense_2/MatMul i1 [512, 256] scale=0.016442114 zero_point=0
-0.13153692 -0.16442114 -0.29595807 -0.09865269 0.14797904 0.016442114 0.06576846 0.24663171
0.37816864 -0.08221057 0.27951595 -0.4439371 0.1150948 -0.16442114 -0.3452844 -0.09865269
0.1150948 -0.03288423 -0.03288423 0.06576846 -0.24663171 -0.21374749 0.14797904 0.03288423
-0.08221057 -0.08221057 -0.24663171 -0.31240016 0.16442114 0.03288423 -0.06576846 0.32884228
0.09865269 0.0 -0.09865269 0.08221057 0.06576846 0.13153692 -0.24663171 -0.016442114
-0.09865269 -0.21374749 0.03288423 -0.09865269 -0.06576846 0.16442114 -0.049326345 -0.06576846
0.06576846 -0.59191614 0.049326345 -0.2301896 -0.21374749 0.13153692 -0.5590319 0.06576846
-0.21374749 -0.03288423 0.16442114 -0.06576846 0.0 0.016442114 -0.64124244 -0.21374749
-0.16442114 0.03288423 -0.18086326 -0.19730538 -1.1673901 -0.13153692 -0.06576846 -0.18086326
0.06576846 -0.13153692 -0.03288423 -0.27951595 0.16442114 -0.09865269 -0.03288423 -0.06576846
-0.24663171 -0.13153692 -0.64124244 0.0 -0.3452844 -0.06576846 -0.13153692 -0.2301896
-0.14797904 -0.19730538 -0.1150948 -0.049326345 -0.26307383 0.016442114 -0.049326345 -0.08221057
0.049326345 0.016442114 -0.016442114 0.08221057 0.016442114 -0.03288423 -0.37816864 0.049326345
-0.13153692 0.016442114 -0.016442114 0.0 0.1150948 -0.09865269 -0.06576846 -0.049326345
0.27951595 -0.18086326 0.0 0.06576846 -0.21374749 0.14797904 0.21374749 0.1150948
0.1150948 -0.24663171 -0.16442114 -0.27951595 -0.16442114 -0.1150948 0.08221057 -0.03288423
0.09865269 -0.36172652 -0.1150948 -0.016442114 0.08221057 0.09865269 -0.016442114 0.0
-0.09865269 -0.27951595 0.24663171 0.16442114 0.1150948 0.18086326 0.09865269 0.016442114
0.06576846 0.049326345 0.06576846 -0.1150948 0.13153692 0.049326345 -0.08221057 0.0
0.0 0.21374749 -0.049326345 -0.06576846 -0.13153692 -0.06576846 0.32884228 -0.2301896
0.03288423 -0.016442114 0.14797904 -0.36172652 -0.13153692 -0.016442114 0.19730538 0.2301896
-0.13153692 -0.06576846 -0.24663171 -0.08221057 0.016442114 -0.41105285 0.06576846 -0.03288423
-0.13153692 -0.08221057 -0.21374749 -0.64124244 0.08221057 -0.08221057 0.06576846 -0.13153692
0.0 -0.1150948 -0.24663171 0.19730538 0.13153692 0.08221057 0.16442114 -0.39461076
-0.14797904 0.06576846 0.06576846 0.0 -0.1150948 -0.03288423 0.24663171 0.13153692
-0.52614766 0.049326345 -0.049326345 -0.016442114 -0.18086326 -0.37816864 -0.049326345 0.13153692
0.08221057 -0.27951595 -0.08221057 -0.09865269 -0.21374749 -0.09865269 0.14797904 -0.3452844
-0.08221057 -0.08221057 -0.049326345 -0.31240016 0.08221057 0.0 0.06576846 0.09865269
-0.08221057 0.049326345 -0.19730538 -0.31240016 -0.06576846 -0.13153692 0.049326345 0.08221057
-0.14797904 0.0 -0.03288423 -0.14797904 0.1150948 -0.3452844 -0.09865269 0.09865269
-0.016442114 -0.08221057 -0.049326345 -0.1150948 -0.08221057 0.08221057 0.09865269 0.19730538
-0.049326345 -0.049326345 0.39461076 -0.24663171 -0.016442114 -0.08221057 -0.18086326 0.1150948
00000000: f8f6 eefa 0901 040f 17fb 11e5 07f6 ebfa
00000010: 07fe fe04 f1f3 0902 fbfb f1ed 0a02 fc14
00000020: 0600 fa05 0408 f1ff faf3 02fa fc0a fdfc
00000030: 04dc 03f2 f308 de04 f3fe 0afc 0001 d9f3
00000040: f602 f5f4 b9f8 fcf5 04f8 feef 0afa fefc
00000050: f1f8 d900 ebfc f8f2 f7f4 f9fd f001 fdfb
00000060: 0301 ff05 01fe e903 f801 ff00 07fa fcfd
00000070: 11f5 0004 f309 0d07 07f1 f6ef f6f9 05fe
00000080: 06ea f9ff 0506 ff00 faef 0f0a 070b 0601
00000090: 0403 04f9 0803 fb00 000d fdfc f8fc 14f2
000000a0: 02ff 09ea f8ff 0c0e f8fc f1fb 01e7 04fe
000000b0: f8fb f3d9 05fb 04f8 00f9 f10c 0805 0ae8
000000c0: f704 0400 f9fe 0f08 e003 fdff f5e9 fd08
000000d0: 05ef fbfa f3fa 09eb fbfb fded 0500 0406
000000e0: fb03 f4ed fcf8 0305 f700 fef7 07eb fa06
000000f0: fffb fdf9 fb05 060c fdfd 18f1 fffb f507
