model/keypoint_classifier/keypoint_classifier.tflite (tflite, 7512 bytes, 6 tensors)

sequential/dense/BiasAdd/ReadVariableOp f4 [20]
0	0x3e7c5950	0.24643445
1	0xbf39b048	-0.7253461
2	0x3e9ae934	0.30256045
3	0xbf3c3ca7	-0.7353005
4	0x3d26ee83	0.040754806
5	0xbf38c8d6	-0.7218145
6	0x3f0294d6	0.51008356
7	0x3e239507	0.15974818
8	0xbde72ad6	-0.11287467
9	0xbf3a8dd3	-0.72872657
10	0xbf939361	-1.1529351
11	0x3e97d42b	0.2965406
12	0xbfba912f	-1.4575557
13	0xbfb556ed	-1.4167153
14	0x3e782c6d	0.24235697
15	0x3f30c00b	0.69043034
16	0x3f8f8115	1.1211268
17	0x3e6c31f2	0.23065928
18	0xbf741ccb	-0.95356435
19	0xbf826329	-1.0186511

sequential/dense_2/BiasAdd/ReadVariableOp f4 [26]
0	0xbcd24f9a	-0.025672723
1	0x3f5ec0b9	0.8701282
2	0xbe32ef32	-0.17474058
3	0x3f7e11c2	0.99245846
4	0xbe9dc8d9	-0.30817297
5	0xbe3e5292	-0.18586186
6	0xbe867845	-0.26263633
7	0xbf2fea29	-0.68716675
8	0xbea25e82	-0.3171273
9	0xbeb0fc04	-0.34567273
10	0xbeda3380	-0.42617416
11	0xbe937960	-0.2880354
12	0xbea67562	-0.3251143
13	0xbe96fa11	-0.2948766
14	0xbe93e34c	-0.2888435
15	0xbeb570f5	-0.35437742
16	0xbea1c48f	-0.31595275
17	0xbec77eb1	-0.38963845
18	0xbe82843f	-0.2549152
19	0xbeac2a97	-0.33626243
20	0xbeae894d	-0.34089127
21	0xbeb2912a	-0.34876376
22	0xbee3c8b9	-0.44489077
23	0xbe91818d	-0.28419152
24	0xbea52b6c	-0.3225969
25	0xbeba4901	-0.36383823

sequential/dense_1/BiasAdd/ReadVariableOp f4 [10]
0	0x3f017c5b	0.50580376
1	0xbdd5c890	-0.10438645
2	0x3fc6c2e9	1.5528232
3	0x3ec9c308	0.3940661
4	0x3fc3418a	1.5254376
5	0x3f602b0c	0.87565684
6	0xbf0d197c	-0.5511701
7	0x3ff21a26	1.891423
8	0x3f13a8c0	0.5767937
9	0x3f7866cc	0.97031856

sequential/dense/MatMul f4 [20, 42]
0	0x3bd6b3c0	0.0065521896
1	0x3d8c0748	0.06837326
2	0xbe10ec23	-0.14152579
3	0x3e974bbf	0.29549977
4	0x3dde83b7	0.10864966
5	0x3e014124	0.12622505
6	0x3f495f1d	0.78660756
7	0x3e869067	0.26282045
8	0x3fadb1c5	1.3569876
9	0x3efa00fc	0.48828876
10	0xbe3abf84	-0.1823712
11	0xbde196a7	-0.11015063
12	0x3d20af27	0.03922954
13	0xbdfddd6d	-0.12395749
14	0x3d869991	0.06572259
15	0xbdd902f0	-0.105962634
16	0x3d99a081	0.07501317
17	0xbdc1a651	-0.094555505
18	0xbf502814	-0.81311154
19	0xbdf4742c	-0.119362205
20	0xbe15b8c7	-0.14621268
21	0xbe22d203	-0.15900426
22	0xbe50bed3	-0.20385294
23	0xbe150233	-0.1455162
24	0x3e3938fd	0.18088146
25	0xbdf8f59b	-0.121562205
26	0xbf99aad3	-1.2005256
27	0xbe394315	-0.18091996
28	0xbf049bba	-0.5180012
29	0xbe577e96	-0.21044382
30	0xbf32948e	-0.69757926
31	0xbe2f9638	-0.17147148
32	0xbe6f7188	-0.23383152
33	0xbdd1d44e	-0.10245572
34	0xbef9fe14	-0.4882666
35	0xbe398167	-0.1811577
36	0xbf06fe65	-0.52731925
37	0xbe82ec69	-0.25570992
38	0xbf72b418	-0.9480605
39	0xbe6bf0e9	-0.23041119
40	0xbf9a68b7	-1.2063206
41	0xbe29d6da	-0.16585866
42	0x3daaf250	0.08346999
43	0x3e8ac986	0.27106875
44	0xbef9ebb7	-0.4881265
45	0xbe7e1de2	-0.24816087
46	0xbe29ae1b	-0.16570322
47	0xbef808d8	-0.48444247
48	0x3e5ebbe1	0.21751358
49	0xbef1c32a	-0.4721921
50	0x3f2ba7a2	0.6705266
51	0xbea74337	-0.32668468
52	0xbf83029d	-1.0235173
53	0xbe8a7e7e	-0.2704963
54	0xbf81c2cb	-1.0137571
55	0xbe44db0f	-0.19224189
56	0xbf1426c4	-0.5787165
57	0x3deb28f8	0.114824235
58	0xbec2f906	-0.38080615
59	0x3e9814ed	0.29703465
60	0xbf862555	-1.0480143
61	0xbe518238	-0.20459831
62	0xbed9565e	-0.42448705
63	0xbe209686	-0.1568242
64	0xbe4b808f	-0.1987326
65	0x3e351e9b	0.17687456
66	0x3e64f0f9	0.22357549
67	0x3e9d4e70	0.30723906
68	0x3e9bd5f9	0.30436686
69	0xbea50cfb	-0.32236466
70	0x3f0680a4	0.5254004
71	0xbe6339ac	-0.22189969
72	0x3f235416	0.6380018
73	0x3e30d86d	0.1727006
74	0x3f25d194	0.64772916
75	0x3ebe58e5	0.37177196
76	0x3fd581b1	1.6680204
77	0xbebeb79c	-0.37249458
78	0x3fd590ad	1.6684777
79	0xbe6da620	-0.23207903
80	0x3fb3412a	1.4004261
81	0x3e04c870	0.12967086
82	0x3fa3743b	1.2769846
83	0x3eb276f6	0.34856385
84	0xbe6c0fd3	-0.23052911
85	0xbe3b2b1a	-0.1827816
86	0x3f0422de	0.51615703
87	0xbee8bd70	-0.4545703
88	0x3f0be68a	0.5464865
89	0xbea4f5b8	-0.3221872
90	0x3f65d6e9	0.8978105
91	0x3cbbc817	0.022922559
92	0x3f85873a	1.0431893
93	0x3d321398	0.043475717
94	0xbe9831b4	-0.2972542
95	0xbe88a0af	-0.26685092
96	0x3edf3be3	0.43600377
97	0xbe5d599a	-0.21616212
98	0x3f21de44	0.63229775
99	0xbe4f15e6	-0.20223197
100	0x3f485fd3	0.78271216
101	0xbdfede54	-0.124447495
102	0x3cbecad2	0.023290072
103	0x3db5a31f	0.088690035
104	0x3eb08081	0.3447304
105	0xbc1da280	-0.009621263
106	0x3e8317cb	0.2560409
107	0xbe286041	-0.16442968
108	0x3f152999	0.582666
109	0xbcc78100	-0.024353504
110	0xbea29052	-0.31750733
111	0x3decd573	0.1156415
112	0xbd43e057	-0.04782137
113	0x3d2cb078	0.04216048
114	0xbd16865f	-0.03674924
115	0x3e5f31c6	0.21796331
116	0xbec88879	-0.3916662
117	0x3ea2682e	0.31720108
118	0x3e3e5dac	0.1859042
119	0x3ef48a24	0.47761643
120	0x3d04d901	0.032433514
121	0x3ea9a691	0.33134893
122	0xbea76360	-0.32693005
123	0x3ec3c2d8	0.3823459
124	0xbe274304	-0.16334158
125	0x3eaac7df	0.33355615
126	0x3ccb0790	0.02478388
127	0x3c6ab900	0.014326334
128	0x3db78d53	0.08962502
129	0xbdabc144	-0.08386472
130	0x3d4a3803	0.049369823
131	0x3db96204	0.09051898
132	0xbdbc2c08	-0.09188086
133	0xbc354ca5	-0.011065637
134	0xbe5a0b7d	-0.21293445
135	0xbe1c27e1	-0.15249588
136	0xbe9790cd	-0.29602662
137	0x3dd661a3	0.104678415
138	0xbf0dc426	-0.55377424
139	0x3d69422d	0.056947876
140	0xbf333566	-0.70003355
141	0x3d3b89ac	0.04578559
142	0xbf5a9801	-0.8538819
143	0x3d3e0967	0.046395686
144	0xbeda4f74	-0.42638743
145	0x3cbd4546	0.023104321
146	0xbee3520f	-0.44398543
147	0xbced1960	-0.028942764
148	0xbebdc9c8	-0.3706801
149	0xbd1f9c6e	-0.038967542
150	0xbf475a8c	-0.7787254
151	0xbd8e3e8b	-0.06945523
152	0x3ebb39e6	0.3656761
153	0xbd3f07ee	-0.04663842
154	0x3fb42907	1.407502
155	0xbd821d6b	-0.06353267
156	0x3fa33255	1.2749735
157	0xbdbf01bd	-0.093265034
158	0x3f5227b0	0.8209181
159	0xbde2b3de	-0.11069463
160	0x3f6653a4	0.89971375
161	0xbd3788ad	-0.04480808
162	0x3fbc8b4c	1.473001
163	0xbc9d770b	-0.019221803
164	0x3fe40ef8	1.7817068
165	0xbd8febb2	-0.07027377
166	0x3fdc9d8a	1.7235577
167	0xbd71ef4c	-0.059066102
168	0x3b69f700	0.0035700202
169	0xbd96e618	-0.07368106
170	0x3c0d2715	0.008615275
171	0x3ef6d069	0.4820588
172	0x3dd6f385	0.104956664
173	0x3dafcc81	0.08583928
174	0x3f2035e9	0.6258226
175	0x3e1a758a	0.150839
176	0x3f8417d4	1.0319772
177	0x3e97744d	0.29580918
178	0xbf3fa078	-0.7485423
179	0xbdadd39b	-0.08487626
180	0xbebfb67b	-0.3744391
181	0xbd402fa8	-0.04692045
182	0xbe66d123	-0.22540717
183	0xbd64637b	-0.055758934
184	0x3a5165d2	0.00079878897
185	0xbd4d9946	-0.050195
186	0xbfceafa1	-1.6147348
187	0xbdaacb85	-0.083395995
188	0xbe8ea9b4	-0.27863848
189	0xbdc9db67	-0.09856301
190	0x3e7b2e14	0.24529296
191	0xbd7c95b0	-0.06166619
192	0x3ecb44bd	0.3970088
193	0xbd56fdfe	-0.05248832
194	0xbfcd0b92	-1.6019156
195	0xbdb10191	-0.08642877
196	0xbdf9e42e	-0.12201725
197	0xbd9ee26f	-0.077580325
198	0x3e621f00	0.22082138
199	0xbdb33835	-0.08750955
200	0x3ee87a91	0.4540601
201	0xbddb9626	-0.10721998
202	0xbe0ae6fd	-0.13564678
203	0xbd91557f	-0.07096385
204	0x3b1a4253	0.0023538067
205	0xbdcb569e	-0.0992863
206	0xbd3ab8c6	-0.04558637
207	0xbdc8bcf0	-0.09801662
208	0x3c934107	0.017975343
209	0xbdb7b110	-0.08969319
210	0xbda42412	-0.08014692
211	0x3d934348	0.07190567
212	0xbefd964b	-0.49528727
213	0xbf7eb885	-0.99500304
214	0xbea79d31	-0.32737115
215	0xbf20b15b	-0.6277062
216	0xbf4eb303	-0.807419
217	0xbef6cab5	-0.48201528
218	0xbfaba78a	-1.3410504
219	0xbecd9370	-0.40151548
220	0xbe5bbfa7	-0.21459828
221	0xbe3c5168	-0.18390429
222	0xbd02f91d	-0.031975854
223	0xbd9ab0bb	-0.0755324
224	0x3da5c63b	0.0809445
225	0x3c463b87	0.012099153
226	0x3d59e3cf	0.05319577
227	0x3d801756	0.06254451
228	0x3e3448f7	0.17605959
229	0x3c0fd0de	0.008777825
230	0x3dc2126f	0.09476172
231	0x3ce73aad	0.028226221
232	0x3ca9084c	0.02063384
233	0x3dee96f7	0.11649888
234	0xbcaa752a	-0.020807821
235	0x3e4d1998	0.20029294
236	0x3f6b6cc8	0.9196286
237	0x3d827407	0.06369787
238	0xbee9ee13	-0.4568945
239	0x3d9a25ca	0.07526739
240	0xbf1a6a0f	-0.6031808
241	0x3e40ed27	0.18840466
242	0xbf2f8d1c	-0.6857469
243	0x3e6a9461	0.22908165
244	0x3e6ca6d4	0.23110515
245	0x3dc9a84e	0.09846555
246	0xbf25f6ef	-0.64829916
247	0x3d887b92	0.06664194
248	0xbf4119ce	-0.7543
249	0x3e198a1c	0.14994091
250	0xbf57fe32	-0.84372246
251	0x3e624aff	0.22098921
252	0x3dd877f4	0.10569754
253	0xbde3c7d0	-0.111220956
254	0xbd7d5750	-0.061850846
255	0x3f33d9b3	0.7025406

sequential/dense_1/MatMul f4 [10, 20]
0	0x3f6d66dc	0.92735076
1	0xbbfd2d30	-0.007726334
2	0xbe1b6b46	-0.1517764
3	0x3ea42bbb	0.32064614
4	0x3f3a3261	0.7273312
5	0xbed29d36	-0.41135567
6	0x3f878164	1.0586362
7	0x3f2d06e9	0.6758867
8	0x3fa5eaa3	1.296223
9	0xbe898cb5	-0.26865163
10	0x3db17b70	0.08666122
11	0x3c8c6742	0.01713908
12	0x3e16f52b	0.14741962
13	0x3db41381	0.087927826
14	0x3db7b7e0	0.08970618
15	0xbed05b6b	-0.40694746
16	0x3eb9a901	0.36261752
17	0x3ebf22b0	0.37331152
18	0xbe9ec63f	-0.31010625
19	0x3e388aec	0.18021744
20	0x3db7adde	0.089687094
21	0x3e309d60	0.17247534
22	0xbfac0001	-1.3437501
23	0x3eb46e8a	0.35240585
24	0xbcaf7dab	-0.021422228
25	0x3f7fff8e	0.9999932
26	0x3d66868c	0.056280658
27	0xbf84d4f3	-1.0377487
28	0xbe142a44	-0.14469248
29	0x3ed39750	0.4132638
30	0x3f36916c	0.71315646
31	0xbfab1651	-1.3366185
32	0x3f7b8e93	0.98264426
33	0x3fafa884	1.3723302
34	0xbf7c1ded	-0.98483163
35	0xbf9d52e9	-1.2290927
36	0xbe1c4f77	-0.15264688
37	0xbf8368de	-1.0266378
38	0x3f2cb4b2	0.6746322
39	0x3f510eef	0.8166341
40	0x3e81d440	0.25357246
41	0x3e90ae2d	0.28257886
42	0xbfbc994a	-1.473428
43	0x3e62deb9	0.22155274
44	0x3e9a5a61	0.3014708
45	0x3f2588e1	0.64661986
46	0x3e939cd9	0.28830603
47	0xbf84033d	-1.0313488
48	0xbdc4e7a8	-0.096144974
49	0x3b19709d	0.002341307
50	0xbe685528	-0.22688735
51	0xbf9a0d95	-1.2035395
52	0x3eb3ed91	0.35142186
53	0xbe2282ae	-0.15870163
54	0xbf97e1bd	-1.1865765
55	0xbf0e6bb9	-0.5563312
56	0xbeac9440	-0.33706856
57	0xbfb39735	-1.403052
58	0xbe91e2ca	-0.2849334
59	0x3f18185d	0.59412175
60	0xbf987a50	-1.1912327
61	0x3e99002f	0.29882953
62	0x3ea1dd73	0.31614265
63	0x3d9c5dda	0.07635088
64	0xbf9b8228	-1.2149096
65	0xbebce800	-0.36895752
66	0xbf8a42db	-1.0801653
67	0xbeeb98e9	-0.460151
68	0x3e973d10	0.29538774
69	0x3ee166d3	0.4402376
70	0x3f092bc7	0.53582424
71	0x3f36fe2f	0.71481603
72	0xbf49c8d6	-0.78822076
73	0x3e94a0c4	0.29028904
74	0x3ee7a954	0.45246375
75	0x3e8b3fb7	0.27197048
76	0x3f080759	0.5313621
77	0x3ee82401	0.4533997
78	0x3f7f0b5a	0.99626696
79	0xbf4793bd	-0.77959806
80	0x3dc179df	0.09447073
81	0x3e722e58	0.23650491
82	0x3ec4720c	0.3836826
83	0xbfefdbc0	-1.8738937
84	0xbf1db7f4	-0.61608815
85	0x3f26cd96	0.6515745
86	0x3e120650	0.1426022
87	0xbf48fc39	-0.7850986
88	0x3e255b13	0.16148023
89	0xbffba9bf	-1.9661177
90	0xbe24f12b	-0.16107623
91	0x3d60f587	0.054921653
92	0xbf8fd5ae	-1.1237085
93	0x3eb4c54f	0.35306785
94	0x3f26d781	0.6517258
95	0x3efce1e7	0.493911
96	0x3f626604	0.88436913
97	0x3ee8f7e9	0.4550164
98	0xbe58bfa9	-0.21166863
99	0x3ec34c41	0.38144115
100	0xbd87478e	-0.06605445
101	0x3f74e9c7	0.95669216
102	0xbfaea4f1	-1.3644086
103	0x3f3b5db1	0.73189837
104	0x3ec278ea	0.37982875
105	0xbef8ef14	-0.48619902
106	0xbda1a8de	-0.07893537
107	0x3eb21020	0.34777927
108	0x3f73d640	0.95248795
109	0x3f8fa359	1.1221725
110	0x3b13b679	0.0022539182
111	0xbf91236e	-1.1338937
112	0x3f4ca542	0.79939663
113	0x3f8ee0bb	1.1162332
114	0xbfa5c87c	-1.2951808
115	0xbf95af43	-1.1694111
116	0xbe24a9f8	-0.16080463
117	0xbfac8d7b	-1.3480676
118	0x3c4123b9	0.011788302
119	0x3e5828c6	0.21109304
120	0xbee4fdcb	-0.4472488
121	0xbd07a438	-0.033115596
122	0x3e8fa8aa	0.28058368
123	0x3f5c6115	0.86085635
124	0xbeb059a3	-0.34443387
125	0x3f24c2e0	0.64359856
126	0xbf2d56b8	-0.6771045
127	0xbebea915	-0.37238374
128	0xbdb00a21	-0.08595682
129	0xbf0cabcf	-0.5494966
130	0xbd1a990d	-0.037743617
131	0xbbe8a5ab	-0.0070998273
132	0x3da20296	0.079106495
133	0x3eb82049	0.35962132
134	0xbe7aa0ae	-0.24475357
135	0xbe5cd342	-0.21564963
136	0x3e8953ee	0.26821846
137	0x3f3b4d2b	0.73164624
138	0xbf3f4071	-0.74707705
139	0x3e83bb36	0.25728768
140	0x3d801533	0.062540434
141	0x3e425352	0.18977097
142	0xbf8a2e9b	-1.0795473
143	0x3eacebbc	0.337736
144	0xbe7bd072	-0.24591234
145	0x3d6c1fa2	0.057647355
146	0x3d4ef475	0.0505261
147	0xbe46a3bd	-0.19398399
148	0x3eb69442	0.35659987
149	0xbd5557c8	-0.052085668
150	0xbf8cd604	-1.1002812
151	0xbfa23482	-1.2672274
152	0x3e1588ad	0.14602919
153	0x3ea3cdd6	0.31992978
154	0xbf1b7849	-0.60730416
155	0xbea29715	-0.3175589
156	0x3f116121	0.5678883
157	0xbf5b87ec	-0.85754275
158	0xbf8e6f78	-1.1127768
159	0x3ee2a7d0	0.44268656
160	0x3d4fd668	0.050741583
161	0xbc62cff4	-0.013843525
162	0x3cb0a383	0.021562343
163	0x3e0a7847	0.13522445
164	0xbd379743	-0.04482199
165	0xbfc28caa	-1.5199177
166	0x3de11809	0.109909125
167	0xbf04f803	-0.51940936
168	0x3ec81ad7	0.39082977
169	0x3e15c2cf	0.14625095
170	0x3e9869a6	0.29768103
171	0x3d88fc7d	0.06688783
172	0xbf808f5d	-1.0043751
173	0xbecd7104	-0.40125287
174	0x3e2466ba	0.16054812
175	0xbf0c2727	-0.5474724
176	0x3fc744e8	1.5567904
177	0xbe7509b7	-0.23929487
178	0x3e25fbe3	0.16209368
179	0xbfa587db	-1.2932085
180	0xbde29f20	-0.11065507
181	0x3f5f091c	0.87123275
182	0x3f0b1f71	0.5434485
183	0x3f11a29b	0.5688874
184	0x3db12cef	0.086511485
185	0x3e0f3821	0.13986255
186	0xbdd51681	-0.10404683
187	0xbf0cf351	-0.5505877
188	0x3ebe5448	0.37173676
189	0x3ef8da3c	0.48604
190	0xbfb24ba2	-1.3929331
191	0x3f01720e	0.5056466
192	0x3f59dcad	0.8510235
193	0x3eea72ad	0.45790616
194	0x3ebd1d74	0.36936533
195	0x3f0c076e	0.54698837
196	0x3df321b1	0.118716605
197	0x3f7c3358	0.98515844
198	0xbfa77165	-1.308148
199	0x3ca94476	0.020662528

sequential/dense_2/MatMul f4 [26, 10]
0	0xbf101839	-0.5628696
1	0x3f061761	0.52379423
2	0x3eec9201	0.46205142
3	0xbf557c18	-0.8339248
4	0xbe75e20a	-0.24012008
5	0xbd0476e4	-0.032339945
6	0xbd9f2b85	-0.077719726
7	0x3e738368	0.23780596
8	0xbf96498c	-1.1741195
9	0x3f268382	0.65044415
10	0x3ed10039	0.40820482
11	0xbfc24313	-1.517672
12	0x3f3f2e62	0.7468015
13	0xbf85ab2d	-1.0442864
14	0xbf84ca2d	-1.0374199
15	0x3e86fb17	0.2636344
16	0xbff3bebd	-1.9042584
17	0x3ebbb89a	0.36664277
18	0x3f45069c	0.7696321
19	0x3df59e75	0.11993114
20	0x3eef1f4a	0.4670356
21	0x3f53911a	0.8264328
22	0x3f41c323	0.7568838
23	0x3f8dda70	1.1082287
24	0x3e63f84c	0.22262686
25	0xbea8fdbb	-0.3300608
26	0x3eb491e2	0.3526755
27	0xbf00f334	-0.503711
28	0x3e1ccc06	0.15312204
29	0xbf73f2f6	-0.95292604
30	0x3e41ad4b	0.18913762
31	0xbe16ee9a	-0.14739457
32	0x3e63d017	0.22247349
33	0xbe91e74e	-0.28496784
34	0x3f8224d5	1.016749
35	0xbfebb5ed	-1.8414894
36	0xbe91415c	-0.28370178
37	0x3f69c66c	0.9131839
38	0xbed1eb15	-0.40999666
39	0xbea4a5fe	-0.32157892
40	0x3f261a54	0.64883924
41	0xbd8272e3	-0.06369569
42	0x3c8f15f5	0.017466525
43	0xbfa0ea7c	-1.2571559
44	0xbebbb5f9	-0.36662272
45	0x3f2d4125	0.6767753
46	0xbf5224bd	-0.8208731
47	0x3e6126d7	0.21987472
48	0xbf9a9856	-1.2077739
49	0x3e3cb7d7	0.18429504
50	0x3ea92fc4	0.33044255
51	0x3d03ecbe	0.032208197
52	0xbeeaac8b	-0.45834765
53	0x3f2968f9	0.661758
54	0x3f41f16c	0.75759006
55	0x3f24e943	0.6441843
56	0x3f5584f5	0.83406
57	0xbeec1463	-0.46109304
58	0x3e23ad4f	0.1598408
59	0xbe98582f	-0.2975478
60	0xbe9872f9	-0.29775217
61	0xbf6088af	-0.8770856
62	0xbf95b42f	-1.1695613
63	0xbf8a2418	-1.0792265
64	0xbfe7415e	-1.8066823
65	0xbf067ccb	-0.5253417
66	0xbeacba28	-0.33735776
67	0xbf635ae1	-0.88810545
68	0xbf83225d	-1.0244862
69	0xbf9645bc	-1.1740031
70	0x3e672120	0.2257123
71	0xbf5c63b8	-0.8608966
72	0xbf948cff	-1.1605529
73	0x3f884c9a	1.0648377
74	0x3f00ff19	0.5038925
75	0x3d3b976d	0.045798708
76	0x3f2fc203	0.68655413
77	0xbf4a837a	-0.7910687
78	0x3ebe8c5f	0.3721647
79	0x3ede4882	0.43414694
80	0xbef31de6	-0.47483748
81	0xbf793f09	-0.9736181
82	0xbf78ca84	-0.97184014
83	0xbf7dccc2	-0.9914056
84	0xbfb5cf05	-1.4203802
85	0xbf59e797	-0.85119003
86	0xbedab760	-0.4271803
87	0xbfb745b7	-1.431815
88	0xbef2dc54	-0.47433722
89	0xbf452e1f	-0.770235
90	0xbf27d13e	-0.65553653
91	0xbf766c11	-0.96258646
92	0xbf825698	-1.0182676
93	0xbfbbee6e	-1.4682138
94	0xbf7ce2fc	-0.9878385
95	0xbed4a495	-0.41531816
96	0xbf61618a	-0.8803946
97	0xbfe07607	-1.7536019
98	0xbf17b89b	-0.5926606
99	0xbf2901df	-0.6601848
100	0xbdb7a507	-0.08967023
101	0xbf341ee7	-0.70359653
102	0xbec04af5	-0.37557188
103	0xbfdc43e1	-1.7208215
104	0xbfdbdc18	-1.7176542
105	0xbede4d15	-0.43418184
106	0xbf010dbe	-0.50411594
107	0xbf1e6a03	-0.6188051
108	0xbfc24756	-1.517802
109	0xbf8b8170	-1.0898876
110	0xbf2bc567	-0.6709809
111	0xbfa64f19	-1.2992889
112	0xbf52e20a	-0.8237616
113	0xbfacddc2	-1.3505175
114	0xbfd881c3	-1.69146
115	0xbef1fd43	-0.47263536
116	0xbf10bafd	-0.5653532
117	0xbfd48f30	-1.6606197
118	0xbf50e752	-0.81602967
119	0xbecbbad1	-0.39790967
120	0xbedb3d18	-0.42820048
121	0xbf38b7e9	-0.72155625
122	0xbf02304f	-0.50854963
123	0xbf915011	-1.1352559
124	0xbfe79d25	-1.8094832
125	0xbf35e4e6	-0.71052396
126	0xbf9ab194	-1.2085443
127	0xbfb76cc5	-1.4330069
128	0xbfa0174d	-1.2507111
129	0xbf10b7fe	-0.5653075
130	0xbea281a1	-0.31739524
131	0xbf4887c2	-0.7833215
132	0xbf954f1f	-1.1664771
133	0xbffb1d33	-1.9618286
134	0xbfed182f	-1.8523005
135	0xbef30591	-0.47465184
136	0xbf8c944b	-1.0982755
137	0xbf5f2b99	-0.871759
138	0xbf5b3d32	-0.8564025
139	0xbf2d08f9	-0.67591816
140	0xbeb05f62	-0.3444777
141	0xbf94cadb	-1.1624407
142	0xbf53a6a5	-0.82676154
143	0xbfba55ed	-1.4557472
144	0xbff36888	-1.9016275
145	0xbe9d05fe	-0.30668634
146	0xbf28ee32	-0.6598846
147	0xbf8da35c	-1.1065478
148	0xbf3f71ac	-0.74782825
149	0xbf88083c	-1.0627513
150	0xbf32350c	-0.69612193
151	0xbf935341	-1.1509782
152	0xbf7a3dbb	-0.97750443
153	0xc0196e4e	-2.3973575
154	0xbf986c5e	-1.1908071
155	0xbe444c64	-0.19169766
156	0xbf4b73a8	-0.7947335
157	0xbfb7f8c7	-1.4372796
158	0xbf0f3ad9	-0.5594917
159	0xbf076168	-0.52883005
160	0xbe9fe9c2	-0.3123303
161	0xbf90889e	-1.1291692
162	0xbf44fbe7	-0.7694687
163	0xbfb90a56	-1.4456279
164	0xbfe43aa3	-1.7830395
165	0xbe3a30d2	-0.18182686
166	0xbf24cda8	-0.64376307
167	0xbf9f77dc	-1.2458453
168	0xbfa3886e	-1.277601
169	0xbf26092f	-0.64857763
170	0xbf2a89b1	-0.6661635
171	0xbf95a74a	-1.1691678
172	0xbf181e2a	-0.59421027
173	0xbfc1c29d	-1.5137516
174	0xbfe79bcc	-1.809442
175	0xbe6a390d	-0.22873326
176	0xbf514cbd	-0.8175772
177	0xbf3e25eb	-0.7427661
178	0xbfbc4f3f	-1.4711684
179	0xbf7d7ed4	-0.9902165
180	0xbec90e7e	-0.3926887
181	0xbf202eaf	-0.62571234
182	0xbf52073e	-0.820423
183	0xbfaeafea	-1.3647435
184	0xc007d2d1	-2.1222422
185	0xbf6f3d78	-0.9345317
186	0xbf24c86b	-0.64368314
187	0xbf953ced	-1.1659218
188	0xbf79327b	-0.9734265
189	0xbf34054a	-0.7032057
190	0xbd98c82b	-0.07460054
191	0xbf621903	-0.88319415
192	0xbf409504	-0.7522738
193	0xbfd54ddd	-1.6664387
194	0xbfb2a121	-1.3955423
195	0xbeaa4ca0	-0.33261585
196	0xbf805e53	-1.0028785
197	0xbfc46157	-1.5342206
198	0xbf9f8124	-1.2461286
199	0xbed19572	-0.4093433
200	0x3d36c831	0.04462451
201	0xbf398166	-0.7246307
202	0xbf4113dc	-0.7542093
203	0xbfb66d6d	-1.4252144
204	0xbfd1b36b	-1.6382879
205	0xbea5d480	-0.32388687
206	0xbf805224	-1.0025067
207	0xbfb8590b	-1.4402174
208	0xbf5b1b22	-0.85588276
209	0xbf1331b1	-0.574977
210	0xbf033ca0	-0.5126438
211	0xbfa3c88b	-1.2795576
212	0xbe8a3d51	-0.26999906
213	0xbfb89c37	-1.4422673
214	0xbff49e0d	-1.9110733
215	0xbf81ad71	-1.0131055
216	0xbf8a504c	-1.0805755
217	0xbf762e25	-0.9616416
218	0xbfa19913	-1.262484
219	0xbf441b72	-0.7660438
220	0xbeb15f2d	-0.34642926
221	0xbf6db195	-0.92849094
222	0xbecd4ef3	-0.40099296
223	0xbfa7de11	-1.3114644
224	0xbfa68cc9	-1.3011714
225	0xbf1f9fd4	-0.62353253
226	0xbf660bad	-0.89861566
227	0xbf9ec2cd	-1.2403198
228	0xbf9036ea	-1.1266758
229	0xbf190451	-0.5977221
230	0xbefe205c	-0.49634063
231	0xbf2a56a4	-0.66538453
232	0xbf9b69fe	-1.2141721
233	0xbfffe67b	-1.9992212
234	0xbfe4ab54	-1.7864785
235	0xbf02755b	-0.5096032
236	0xbf6be0d3	-0.9213993
237	0xbfaf0911	-1.3674642
238	0xbecce4ab	-0.4001821
239	0xbea942f6	-0.330589
240	0xbecce027	-0.40014765
241	0xbfa139e1	-1.2595788
242	0xbf2b0adc	-0.66813445
243	0xbfc1950e	-1.5123613
244	0xbfd84df9	-1.6898795
245	0xbefef2b5	-0.49794546
246	0xbed0a838	-0.4075334
247	0xbf8a2da5	-1.079518
248	0xbf159daa	-0.584437
249	0xbf94284f	-1.1574801
250	0xbd774bab	-0.060374897
251	0xbf4b67f7	-0.7945551
252	0xbe7530e6	-0.23944435
253	0xbfdb1951	-1.7117101
254	0xbff6b513	-1.927401
255	0xbf70c115	-0.9404462
