model/keypoint_classifier/keypoint_classifier.tflite (tflite, 7512 bytes, 6 tensors)

sequential/dense/BiasAdd/ReadVariableOp f4 [20]
000000 1c ce bc bf 37 e9 e4 be 48 be 05 bf 3b 48 84 bf
       -1.47504 -0.4470918 -0.5224347 -1.0334543
000010 52 84 91 bf a0 aa e8 bf 53 02 b9 bf aa 2c 91 bf
       -1.1368506 -1.8177071 -1.4453834 -1.1341755
000020 c8 34 ee bd da 92 83 bf 8e 88 0f 3f 5c 81 2b 3f
       -0.11631161 -1.027919 0.5606774 0.6699426
000030 b6 75 1f c0 c3 5c c3 be c4 88 dd bf b9 bb 7a bf
       -2.4915595 -0.3815671 -1.7307363 -0.9794269
000040 69 01 b9 bf ef 9f 73 bf 5b 70 5a be b0 d1 a5 bb
       -1.4453555 -0.95165914 -0.21331923 -0.005060397

sequential/dense_2/BiasAdd/ReadVariableOp f4 [26]
000000 dc 21 89 be f1 13 91 3e 44 6c 49 c0 02 7c c2 3f
       -0.26783645 0.28335527 -3.147233 1.5194094
000010 70 fa a1 be b8 31 6c bf 85 94 25 3f 5f f7 e2 be
       -0.3163638 -0.92263365 0.6467975 -0.44329354
000020 9e ef fb 3f c8 6c 6f bf 65 9e 04 3f 62 f4 bb 3f
       1.96825 -0.9352536 0.5180419 1.4683955
000030 5a cd fa bc 60 10 60 bf 49 94 e0 bf 86 02 95 3f
       -0.030615497 -0.87524986 -1.7545253 1.1641395
000040 2b 29 25 bf 73 f5 23 3f e7 79 1c bf 53 f3 c3 3d
       -0.6451594 0.640464 -0.6112351 0.09567895
000050 74 77 32 3f b0 0b 44 3f 16 0b 22 bc 26 d6 8c 3f
       0.6971352 0.76580334 -0.009890338 1.1002853
000060 66 97 71 bf d4 5f 98 bf
       -0.9437164 -1.1904244

sequential/dense_1/BiasAdd/ReadVariableOp f4 [10]
000000 1d 61 1c 40 d6 f1 0a 40 1e 01 c0 3f 6f c6 d2 bd
       2.4434273 2.1710105 1.5000341 -0.102917545
000010 46 56 35 40 a5 10 60 3f 8a 14 62 3f 16 82 33 40
       2.8333907 0.875254 0.8831259 2.8048148
000020 60 14 75 3f 01 29 28 3f
       0.95734215 0.65687567

sequential/dense/MatMul f4 [20, 42]
000000 90 9b 87 bc d4 3d 00 3e 6f 3c 99 be 4b bc 3b 3f
       -0.01655367 0.12523586 -0.2992892 0.7333419
000010 ea db 41 be 22 01 3f 3e bd f2 98 bd 37 df 19 3e
       -0.18931547 0.18652776 -0.07468174 0.15026556
000020 6c ca 1b 3d 74 f0 e9 3d 9e 80 d0 bd d8 b5 8d bd
       0.03803484 0.11422816 -0.10180782 -0.069194496
000030 7f 35 26 be c5 af bd bc 9c 7e 08 be f4 55 f2 3c
       -0.16231345 -0.023155103 -0.13329548 0.029582001
000040 7d 89 23 be 49 38 b6 3d 86 75 4a 3d a5 91 ec bd
       -0.15970416 0.08897454 0.049428485 -0.11551217
000050 51 cd b6 bd 70 73 7f bd 1d ec 81 be 29 18 1e 3c
       -0.0892588 -0.06236595 -0.25375453 0.009649315
000060 60 0a 95 be a8 d7 0b 3e e6 0a f1 3e 0d 73 a8 bd
       -0.29109478 0.13656485 0.47078627 -0.08225069
000070 64 43 3c 3e 8c 90 83 bd b5 9b 17 3b d1 5b 19 3d
       0.18385082 -0.064240545 0.002313358 0.03744108
000080 f9 ae 98 3c 27 e0 1f c0 3e 18 bf 3e 56 c1 2a bd
       0.018638121 -2.4980562 0.37323183 -0.041688286
000090 d1 b8 97 3e ae 6e a2 bc 21 75 23 be 27 c1 37 3e
       0.2963319 -0.019828167 -0.1596265 0.17944776
0000a0 c8 72 b3 be d9 48 70 3e 6e a2 3d 3e dc df a1 bd
       -0.3504851 0.23465289 0.18518993 -0.07904026
0000b0 66 4d 91 3e 70 cd 58 be 09 e7 76 3e 36 4f 8d bd
       0.28379363 -0.21172118 0.2411157 -0.06899874
0000c0 ad 76 ca 3e 26 fe 88 bc fc 5c ac 3e 1c 23 e5 3c
       0.39543667 -0.01672275 0.3366469 0.027970843
0000d0 9b cf 76 3e c0 c6 85 3c 1d 6b a4 be ca 5f 6e 3a
       0.24102633 0.016330123 -0.3211297 0.0009093253
0000e0 9d c4 a4 bf ff eb 3a 3b b1 a2 fc bf 53 20 96 ba
       -1.2872502 0.0028522012 -1.973715 -0.0011453725
0000f0 4f 62 18 3f f9 0c d9 bb de a7 eb 3e a8 e0 c5 bc
       0.59525007 -0.006623861 0.4602651 -0.024154976
000100 15 fe 02 3f 0e 77 6e bd 88 d1 da 3e de f5 a3 bc
       0.5116895 -0.05821901 0.42737985 -0.0200147
000110 d6 f5 e0 3e 56 39 72 3c 60 91 c9 3e 93 db d7 3b
       0.43937558 0.014784178 0.39368725 0.0065874546
000120 3a 5c 3f 3f 3b 04 9f bd 5f 6c 88 3f 4c cd fb 3c
       0.747501 -0.07764479 1.0658072 0.030737542
000130 93 8f b6 3d ab c3 ee 3c cb 62 9b 3d 3a 57 7a 3d
       0.08914103 0.029146036 0.07587203 0.061118342
000140 7c 65 0a 3d 26 0b e5 3d 57 21 c0 bc 10 f1 fb 3d
       0.03378819 0.11183767 -0.023453398 0.123018384
000150 60 29 80 3e 86 35 86 3e 99 ca 09 3f d5 d6 8f 3f
       0.25031567 0.2621271 0.53824764 1.1237437
000160 c5 1a 76 3e 7a 21 33 3f ad d6 f3 3d 83 2f 39 3f
       0.2403365 0.69972956 0.119061805 0.7233812
000170 0b 01 0b 3e 0a 20 34 3f 47 24 1a be a2 3a ea be
       0.13574617 0.7036139 -0.15052901 -0.45747858
000180 60 67 c4 bc fd 52 8e 3e 15 1d 12 3d 2c 13 0c 3f
       -0.023975074 0.2779769 0.035672266 0.54716754
000190 29 83 de 3d b6 d1 82 3f 78 59 ec 3d b4 fe 56 bf
       0.108648606 1.0220249 0.11540502 -0.83982396
0001a0 eb 0e 06 3d 48 7c 65 3e 1d a8 2a 3d 15 cc d5 3e
       0.03272907 0.22410691 0.04166423 0.41757265
0001b0 42 b8 2f 3e 18 a9 0b 3f 86 14 be 3e 09 8a a0 bf
       0.17160133 0.5455489 0.37125033 -1.2542125
0001c0 54 b6 8e 3d f6 c8 08 3e 8b 0e e2 3d fe e4 93 3e
       0.0696837 0.1335791 0.1103793 0.28885645
0001d0 64 52 4c 3e 64 4f 32 3e a8 a5 03 3f cf 7f d0 bf
       0.19953305 0.17413098 0.51424646 -1.6289004
0001e0 3b ef 2e 3e 8b 58 25 3e 04 c2 d0 3b 22 3b 8e 3e
       0.17083447 0.16147058 0.0063707847 0.2777949
0001f0 1b 59 03 bd aa c7 aa 3e f8 cd 35 bd 32 b5 88 3e
       -0.0320674 0.33355457 -0.04438588 0.2670074
000200 28 f3 90 be 9d 39 de 3e 5b fe 6d 3c da 00 d1 3d
       -0.28310513 0.4340333 0.014525975 0.102052405
000210 9e b9 c3 3e b3 35 53 3d 1d e2 1f 3f bb 3a bc 3d
       0.38227552 0.051564883 0.62454396 0.091908894
000220 b3 17 45 be ea 20 07 bd 0f 34 1e be 12 f1 c2 bc
       -0.19247322 -0.032990374 -0.15449546 -0.023796592
000230 05 ba d4 bd 0b 54 27 3d 2d c5 0c be e2 52 ab 3d
       -0.10387043 0.040851634 -0.13747092 0.08365418
000240 b4 5f 21 bf b0 79 13 bd 83 05 01 bf 3b 6e 91 bd
       -0.63036656 -0.036004722 -0.50399035 -0.07101103
000250 5d a0 a6 be 0e d4 93 bd 1a 4c 38 be d1 44 08 be
       -0.32544222 -0.072181806 -0.1799778 -0.13307501
000260 2f 3e 43 bf b8 4f b3 bd e1 a9 2f be 4a 60 36 be
       -0.7626676 -0.087554395 -0.17154647 -0.17810169
000270 3e 57 50 3e cb 18 33 bf de 94 f2 3e 98 8b a4 3d
       0.2034578 -0.69959706 0.47379202 0.08034438
000280 7c 19 0f be e1 d7 10 be 83 6f 8f be e4 66 1c be
       -0.13974565 -0.14144851 -0.28014764 -0.15273625
000290 28 5a b1 be e4 10 bf be e3 ff b1 be 18 b3 1a bf
       -0.34639096 -0.37317574 -0.3476554 -0.60429525
0002a0 b0 f5 48 3e ed 72 31 be 8e 3e f0 be 9f b9 ca bd
       0.19624972 -0.17328997 -0.46922725 -0.09898686
0002b0 64 6a 07 bf c4 b3 0b bb b4 01 4e bf d3 96 f8 bd
       -0.52896714 -0.0021316865 -0.8047135 -0.121381424
0002c0 f8 12 99 bf 4e 86 fc bd 23 94 4f bf fa 11 99 bd
       -1.1958914 -0.12330304 -0.81085414 -0.07474132
0002d0 e5 f1 f2 be 46 4a c8 bc b0 4d 8f be 42 e2 31 bd
       -0.47450176 -0.024449479 -0.27988958 -0.043428667
0002e0 3a 0f 80 be 50 9d d1 b7 b8 37 0c bf 2e 96 d9 bd
       -0.25011617 -2.4987996e-05 -0.5477252 -0.106243476
0002f0 f6 2a 7e be c1 29 9c 3c 31 61 d6 bc 51 35 ef 3d
       -0.24821076 0.019062879 -0.026169391 0.11680091
000300 05 93 cc 3d d3 8a ee 3d b7 0d ad 3e eb 14 02 be
       0.09988979 0.11647572 0.33799526 -0.12703292
000310 5d 4a 94 3e 40 7e e7 3c 07 b3 20 3f 95 ce 11 3e
       0.28962985 0.028258443 0.62773174 0.14238961
000320 fe 8d 13 3f f9 60 a3 3d e4 9c 36 3f c4 7d 94 bd
       0.5763854 0.079774804 0.71333146 -0.072505504
000330 6f 58 c0 3e d3 0b 3d 3d 79 81 9b 3e 0c 45 6c 3e
       0.3756747 0.046153855 0.30372217 0.23073214
000340 21 3d 9e 3e 4d 55 3c 3e 28 7e fd 3d 80 cd 99 3e
       0.30906013 0.18391915 0.12377578 0.30039597
000350 79 71 54 bf 13 b4 51 3e ce 26 3e bf 17 e4 65 3d
       -0.82985646 0.20478849 -0.7427796 0.056125727
000360 4f 4a 90 bf c4 05 53 bd 3d 32 75 bf 47 dd c6 bd
       -1.1272677 -0.05151917 -0.9577978 -0.09710174
000370 89 ab 0a bf 09 bb 1c bd 1b 06 ae be 0b 5d 2f bd
       -0.5416799 -0.038264308 -0.33989033 -0.042813342
000380 8c e7 aa be 3f f6 0e bd d8 fe 51 be 08 df e2 3b
       -0.3337978 -0.034902807 -0.20507371 0.00692356
000390 ef 01 1d bf 41 1d ea bd 28 32 5a bd a8 11 b8 bd
       -0.61331075 -0.11431361 -0.05327049 -0.08987743
0003a0 cb b1 0c 3e 32 67 40 3d 42 40 0b 3d 2b 1e a6 3c
       0.13739698 0.046973415 0.033996828 0.020278057
0003b0 7d 21 ef bb ca ae 23 be a0 d0 6e 3e 9f 23 41 be
       -0.0072976933 -0.15984645 0.23321772 -0.18861245
0003c0 18 f5 17 3f 07 b4 84 be 4d e9 18 3f e7 c3 07 3c
       0.5935836 -0.259186 0.5973099 0.008286453
0003d0 6c 84 cb 3e 49 f0 98 be 3c dc 0e 3f 12 cf 8e be
       0.39749467 -0.29870823 0.558048 -0.27892357
0003e0 4f 88 22 3f 31 41 d9 bd c8 07 14 3f 98 5d 5a be
       0.6348924 -0.106081374 0.57824373 -0.21324766
0003f0 d4 01 6d 3e ec 89 3f be 42 0d 2b bf 74 7a f0 be
       0.23145229 -0.18704957 -0.66817105 -0.46968424

sequential/dense_1/MatMul f4 [10, 20]
000000 53 93 97 3e ac 39 98 be a0 85 eb be 48 19 19 3f
       0.29604587 -0.297315 -0.46000385 0.598042
000010 f4 1c 8e 3d 01 b8 91 3e 96 d6 74 3d c5 9a b2 bf
       0.06939116 0.28460696 0.059774958 -1.3953482
000020 a4 f4 9a be ab ae f2 be 72 da 24 bf 50 99 1f bf
       -0.3026477 -0.47398886 -0.6439582 -0.6234331
000030 5c 0c b2 3e fc 3c f4 bd 45 25 80 bc 12 9d 8e c0
       0.34775054 -0.11925694 -0.015642771 -4.4566736
000040 12 e8 87 3e 86 f5 e6 bc 5a ef 0d bd 66 a9 15 bf
       0.26544243 -0.028193247 -0.03465209 -0.58461607
000050 de 5f 32 3f f4 4e bf 3f 14 48 f6 3d 4d d1 86 bd
       0.6967753 1.494597 0.120254666 -0.0658289
000060 b4 56 c8 3d 4c 7d af bd 9c bc 2a 3c 13 58 5d 3f
       0.09782162 -0.0856882 0.010420945 0.86462516
000070 07 3e 9d 3e a2 47 8f 3f 93 50 03 bf d9 1b 7d c0
       0.30711386 1.1193736 -0.5129482 -3.9548247
000080 97 97 3e bd 8d 84 13 3f 1b a8 db 3e eb e8 70 3f
       -0.046531286 0.5762413 0.42901692 0.94105405
000090 f4 8d 9c bc 04 1d 15 3f ff ab f9 3e 0f 34 86 3e
       -0.019110657 0.582474 0.48764035 0.26211593
0000a0 ba db 58 3e c2 dc e7 3e a3 aa 23 3f d2 b7 a4 be
       0.21177569 0.45285612 0.63932246 -0.32171494
0000b0 90 d3 19 3f b0 a0 a7 3e 03 4a e2 3d a7 b2 47 bf
       0.60088444 0.32739782 0.11049273 -0.78006977
0000c0 96 ee f9 3d 18 a5 be 3f b3 8a e1 3d bf 65 55 3d
       0.1220371 1.4894133 0.11012783 0.052098986
0000d0 ae df 00 be 2f 14 fd bd e2 31 d7 c0 ee 96 b4 3e
       -0.12585327 -0.12357365 -6.724839 0.352714
0000e0 0d 37 bf 3e b5 aa 4e 3f c4 65 29 3e 70 0e c7 3e
       0.37346688 0.8072923 0.16542727 0.38878202
0000f0 e7 94 fc 3f 74 23 69 3f cc a9 cd 3e 25 c3 9c 3f
       1.9732941 0.9106972 0.40168607 1.2247053
000100 f1 35 9a 3f 49 35 90 3f a2 7e dd 3f 33 fa a5 bd
       1.2047712 1.1266261 1.730427 -0.08104362
000110 2f bc 46 3e 0c 50 03 3f ce 4c d8 3e b5 5a bf 3e
       0.19407724 0.51294017 0.42246097 0.3737389
000120 87 ca af 3f e3 79 ab 3e 50 b1 ef 3f 49 5b 8b 3e
       1.3733681 0.3349143 1.8725986 0.27218083
000130 7e 0a ad 3e 22 96 6c 3e 82 cf 89 3e ec fd 64 3e
       0.33797067 0.23104146 0.26916128 0.22362489
000140 6c e5 92 3f 68 09 9f bd 4c f8 2c c0 a7 cc 8a be
       1.1476264 -0.07765466 -2.7026548 -0.27109262
000150 79 45 5e bd dd c5 b4 3e de 5d f0 3e 5d ed 3a 3e
       -0.054265473 0.35307208 0.46946615 0.1825461
000160 cb 01 1f 3d 59 5b a0 3f d8 c2 cc bf a6 4a 15 bf
       0.03882007 1.2527877 -1.5996962 -0.5831703
000170 4f 2a a9 3f 6b fa ad 3c 3c fc 51 3f a6 b3 1d bf
       1.3216037 0.021237573 0.82025504 -0.61602247
000180 3e 96 a4 3f 90 13 b2 3e 44 66 c2 bf 06 86 7e 3d
       1.285835 0.3478055 -1.5187459 0.062139533
000190 19 9f 76 be 4b 06 ef 3e 5e 86 e2 3e 8f 2a 9f 3e
       -0.24084128 0.4668449 0.4424314 0.31087157
0001a0 53 94 99 3f 8e 50 2b 3f 79 5f ae 3f 23 0b 1a 40
       1.199839 0.6691979 1.3622886 2.4069297
0001b0 3b 4f 04 3f 33 f6 81 bf 8e 18 7d 3e 4f dd 8b be
       0.51683396 -1.0153259 0.24716398 -0.27317283
0001c0 35 1c 6b 3f f8 4b 02 3f e1 77 35 be d9 1c 6b 3f
       0.91839916 0.5089717 -0.17721511 0.91840893
0001d0 bc 01 af 3f 5c bf 96 3f 88 0b 0b 3f a4 89 39 3f
       1.3672404 1.1777148 0.5431447 0.7247565
0001e0 04 10 d1 3f 48 6d 8d bf 0a 49 d9 bf 56 c6 19 3f
       1.6333013 -1.1048975 -1.6975415 0.6006826
0001f0 4e 84 af be 3b a5 5b bb 16 4d 85 bf 5f 97 26 3f
       -0.34280628 -0.0033515233 -1.041415 0.65074724
000200 28 01 5b be 8c a9 b4 3f 2b 63 3b bf 9d 49 c8 3e
       -0.2138716 1.4114242 -0.73198193 0.39118662
000210 1d 9e 39 3f 1f ef 42 bd af a8 96 3f 89 96 7b 3f
       0.72506887 -0.047591325 1.1770228 0.98276573
000220 09 f3 ce 3f 3a f8 9e 3f 49 8b 85 3d a5 63 fd bd
       1.6167918 1.2419503 0.06520707 -0.12372521
000230 0d cb c2 3e eb b0 27 3d b1 d3 07 c0 bd 17 f0 3d
       0.3804554 0.040940206 -2.1222956 0.11723278
000240 94 a9 9c 3e 10 78 ae 3e 85 6a 85 3d 81 a6 a4 be
       0.30598128 0.34075975 0.065144576 -0.32158282
000250 64 fc 78 c0 ef bb 89 be 09 16 b2 bf c2 bc 3f be
       -3.8904047 -0.26901194 -1.3912975 -0.18724349
000260 0d 10 33 be 9f a8 8e c0 ed 1b ee be 5b 09 f4 bc
       -0.17486592 -4.4580836 -0.4650568 -0.029789617
000270 be 19 33 be ad 16 a1 3e 93 3f c8 3c 80 99 14 c0
       -0.17490289 0.31462613 0.024444377 -2.321869
000280 3c 55 8e be e4 a1 eb bf 97 48 24 be ad b4 ca 3e
       -0.27799404 -1.840878 -0.16043316 0.3959097
000290 03 16 86 bd 24 0a e2 3e 66 9c 60 be d6 69 91 bf
       -0.06547167 0.44148362 -0.21934661 -1.1360424
0002a0 cc 44 16 3f db 1a 21 3e f8 83 92 be ea 38 e4 bd
       0.58698726 0.15732901 -0.2861631 -0.11143668
0002b0 dd ac 26 3f e9 ea 73 3f df a6 2a 3b 05 da d3 3e
       0.6510752 0.9528032 0.0026039404 0.41377273
0002c0 5d c1 23 bd 6c 98 6b 3e be 59 b5 be e5 02 93 3e
       -0.039979327 0.23007363 -0.3542003 0.28713146
0002d0 c0 54 a3 3f e4 49 2e be 16 18 d2 3e d5 8d b5 be
       1.2760239 -0.17020375 0.41034 -0.35459772
0002e0 9d 14 a1 3f 2d a5 89 3f f5 d3 3d 3f 12 6e f8 3d
       1.2584416 1.0753533 0.74151546 0.12130369
0002f0 c2 a9 73 3d 32 a7 24 be ef f0 95 bf cf 50 44 bf
       0.059488066 -0.16079405 -1.1714152 -0.76685804
000300 e2 8c 88 3f 91 2a 28 3c e6 e3 27 3f 68 f6 f1 3f
       1.0667994 0.010264055 0.6558212 1.8903322
000310 be 1d 77 3e 74 36 ef 3f 98 f4 04 3e 81 d5 d1 bc
       0.2413244 1.8688493 0.1298393 -0.025614502

sequential/dense_2/MatMul f4 [26, 10]
000000 a2 6d 64 bf 89 1d 5e bf ff 26 22 bf 87 0a 8d bd
       -0.89229786 -0.8676382 -0.63340753 -0.068867736
000010 65 de ae 3d f6 ec 24 3f 3a 00 b6 be 15 83 f6 3e
       0.08538512 0.64424074 -0.35547048 0.48146883
000020 bd ef e4 be 05 d1 c4 3e 25 c1 af 3f 45 35 f7 be
       -0.44714156 0.3844072 1.3730818 -0.4828283
000030 d6 61 25 3e e9 4d da 3e bf 3c 96 bc 90 3d 1e c0
       0.16150603 0.42637566 -0.018339513 -2.4725075
000040 df 02 5d be 38 df 89 bf 3f 4f 89 3f ee 38 03 3f
       -0.21583126 -1.0771246 1.0727309 0.5125874
000050 2d 70 bd 3e fc 41 ad 3e 47 b7 3d bd 80 f5 0e 3f
       0.36999646 0.33839405 -0.046317365 0.55843353
000060 9f 07 90 bf b6 9f 4a be bc 6f 41 3f b8 d9 ef be
       -1.1252326 -0.19787487 0.7556112 -0.46845794
000070 b7 0e 8d be ef 04 b1 3d 36 a5 95 be 84 98 84 be
       -0.2755029 0.08643519 -0.29227608 -0.2589761
000080 cf e7 40 bf fc 1b 25 bf cd c4 0d bf 72 7b 22 bf
       -0.7535371 -0.64495826 -0.5537842 -0.6346961
000090 2d 4a 9a 3f 0b dd 22 3d 22 e9 a1 3e 4e bf 79 3e
       1.2053887 0.039761584 0.3162318 0.24389383
0000a0 71 f5 8f 3f ef 7a 3c bf 28 57 2d bf c7 53 09 3f
       1.1246778 -0.7362508 -0.67711115 0.5364346
0000b0 f0 f4 44 3e df 8c b1 be b2 d2 e0 be d3 b1 e6 bd
       0.19234061 -0.3467779 -0.43910748 -0.11264386
0000c0 ad 88 49 bf d5 b1 15 3d 93 58 43 bf 8e 23 c0 3d
       -0.78724176 0.036546547 -0.7630703 0.093817815
0000d0 bc 68 52 3e 43 63 1e 3f 77 dd 7d 3e bd 24 11 bf
       0.20547765 0.6187021 0.24791513 -0.56696683
0000e0 45 71 c4 be 58 9f 85 bf f9 86 1f be 1c 35 e7 3e
       -0.38367668 -1.0439253 -0.15578832 0.45157707
0000f0 2c d8 39 bf 4c 23 66 3d 0d 0e 85 3e 68 59 a8 bf
       -0.7259548 0.056186005 0.25987282 -1.3152285
000100 56 2d b0 3e c5 6c de 3e 5b 44 50 be c8 f6 95 bf
       0.3440959 0.4344236 -0.20338576 -1.1715937
000110 56 c3 59 be 06 79 21 3d b1 71 0f bf 1c ab 7e 3f
       -0.21265921 0.039422058 -0.56032854 0.9947984
000120 74 6e 60 3d c0 c7 b2 bf be c0 69 3e 2b 1d b6 3d
       0.054792836 -1.3967209 0.22827432 0.08892282
000130 1e af 55 3e 97 fd ac bf f5 6a 64 bc f9 5b 71 bf
       0.20867583 -1.351489 -0.013941516 -0.94280964
000140 70 6f 43 3f 45 0b 40 bf be b0 40 bf c6 43 57 3d
       0.76341915 -0.75017196 -0.7526969 0.05255487
000150 49 f1 9d 3d 4d 81 6c 3e 33 79 55 bf 26 56 59 bf
       0.07712037 0.230962 -0.8338806 -0.8489708
000160 34 34 e0 3e be ac e4 bd 1e 9e 2f bf f5 ff 81 3c
       0.43789828 -0.111657605 -0.6860064 0.01586912
000170 1e b3 a9 be 91 83 88 3e bc 62 40 3f 72 30 4d 3e
       -0.33144468 0.26662877 0.75150657 0.20038012
000180 57 1f 30 bf 4c 8c 40 bf 06 f2 bd 3c 9c c0 bf be
       -0.6879782 -0.75214076 0.023186695 -0.37451637
000190 c1 a6 b1 bf 82 23 c7 3e 07 74 5a 3d ea f5 b8 bf
       -1.3879014 0.38894278 0.05333331 -1.4450047
0001a0 97 d5 7c 3f 80 c8 b9 be dd 8f bf be c7 ef 55 3f
       0.9876341 -0.36285782 -0.37414446 0.83568996
0001b0 dd 7b ca bf 72 54 74 bf 1a a9 e9 bd eb 5f 6f bf
       -1.581905 -0.95441353 -0.11409207 -0.93505734
0001c0 6c 0d 0a bc a8 5a 0e bf 56 8a c8 bf 4e 00 ce 3d
       -0.008426052 -0.5560708 -1.5667217 0.10058652
0001d0 11 82 37 bf 4f 0b a9 3f 69 ee c4 3e bc 27 41 3f
       -0.7168284 1.3206576 0.38463143 0.75451255
0001e0 3e e6 22 be b7 2b ea be 33 c9 d6 3e a6 0c d3 3e
       -0.15908143 -0.45736477 0.41950378 0.41220587
0001f0 5b 6a 82 be 06 13 14 3e 63 94 8f be cc b7 53 bf
       -0.25471768 0.14460382 -0.28042898 -0.82702327
000200 bd d5 29 bf e9 f5 2c 3e 16 ab f0 be 42 66 e4 be
       -0.66341764 0.16890682 -0.47005528 -0.44609267
000210 49 1f cd 3e 89 c8 c0 3e 22 0f 8a be c9 d0 7c 3e
       0.4006293 0.37652996 -0.2696467 0.2468902
000220 53 e8 9b be 06 d3 6b bf 1a 0c cc be dc 65 3d 3e
       -0.30450687 -0.9211887 -0.39852983 0.18495888
000230 72 53 86 be 60 f0 4a be f8 ce 85 bd 6b f9 9f 3e
       -0.2623554 -0.19818258 -0.06533617 0.31244978
000240 45 bd c3 be cc ce ad be 97 ce 20 3f 34 56 01 bf
       -0.3823034 -0.33946836 0.6281523 -0.5052216
000250 9d 99 7d 3e 7f 05 84 3e 57 6d ce be 66 f8 31 3f
       0.2476563 0.25785443 -0.40317795 0.6951965
000260 45 cf 20 3f 3d 26 58 bf d3 6f 90 bf 23 01 a3 3d
       0.6281627 -0.84433347 -1.1284126 0.07959201
000270 52 28 0c be 60 5c 39 bf dd f9 e7 3e 75 21 99 bf
       -0.13687256 -0.7240658 0.45307818 -1.1963335
000280 2e bb d1 be 85 e9 cb 3e 74 76 5a 3f b0 d7 ae bd
       -0.4096312 0.398266 0.85336995 -0.08537233
000290 fd 20 5b bf aa 45 4c be bd 68 09 bf d5 98 f2 be
       -0.8559721 -0.1994845 -0.5367544 -0.47382227
0002a0 c8 ab 1d 3f bf 6a 71 bf 2d b8 15 3f 97 f7 42 bd
       0.6159024 -0.94303507 0.58484155 -0.0475994
0002b0 25 81 69 bf e3 98 fd bf 86 7a 02 3f 36 6c cd bf
       -0.91212684 -1.9812282 0.50968206 -1.6048648
0002c0 6f 33 8d 3f ec 3a 97 3e 4a a6 92 3e df fe 95 bf
       1.1031321 0.2953714 0.28642493 -1.1718405
0002d0 b0 f5 b5 3e d2 c5 58 bf 94 01 67 bf 92 29 4a 3e
       0.35539007 -0.8467685 -0.90236783 0.1974242
0002e0 50 88 9e bd 6b 18 00 3f 7c a8 8b be d0 a4 c5 3e
       -0.07740843 0.5003726 -0.2727698 0.38602304
0002f0 19 0e 6c bf 08 7d 64 3e 32 53 a3 bd 3e 6a 31 bf
       -0.9220901 0.2231332 -0.079748526 -0.6930274
000300 a3 7b 4a bf f1 b2 2d 3e f6 fa 46 bf be 3d cc 3e
       -0.79094905 0.16962792 -0.77726686 0.39890856
000310 5d 64 a9 bd ce d3 9d 3e 31 b7 b9 be 34 35 1f 3f
       -0.08271096 0.30825657 -0.36272576 0.62190557
000320 62 07 f5 3e 6e 22 2f be 00 7e 0d be 69 00 9e bf
       0.47857195 -0.17102978 -0.13817596 -1.2343875
000330 ae c7 33 3f f0 1f a8 bf 65 2b d1 3e 7e 1a ea 3e
       0.7022656 -1.3134747 0.4085342 0.45723337
000340 49 59 b4 bf 81 5e 9b bf 40 ef 4b be 57 f1 a3 3e
       -1.4089748 -1.2138215 -0.19915485 0.32020065
000350 59 a7 9f 3e 6a f5 82 bf 15 19 3e 3f d3 09 4c bf
       0.31182364 -1.0231144 0.7425702 -0.7970249
000360 02 c3 fa be 1f a5 b1 3e c4 36 af bf f0 54 b7 bf
       -0.48976904 0.3469629 -1.3688588 -1.4322796
000370 11 fd 0d 3f 6c b9 54 3f a3 b6 17 bf 51 fb 19 3f
       0.55464274 0.8309543 -0.59263057 0.60149103
000380 82 79 fa bd b1 2a 10 c0 f9 d4 b5 be b2 c4 fa 3e
       -0.12230207 -2.2526057 -0.35514048 0.48978192
000390 80 7d 07 bf 57 ae 30 bf 2d 92 d1 3e 35 50 80 bf
       -0.5292587 -0.6901602 0.40931836 -1.0024477
0003a0 40 70 d4 bd 3c b1 e8 be eb c1 95 3e 23 bb 6f 3e
       -0.103729725 -0.4544772 0.2924951 0.2341123
0003b0 44 23 27 bf b8 b3 73 3e b5 21 61 bf 59 53 ab 3e
       -0.65288186 0.23799026 -0.8794206 0.33462027
0003c0 5c 7e bf bd 9b 08 cc be 2d 8b 49 bf 17 dd fc bc
       -0.09350273 -0.39850315 -0.7872799 -0.030867143
0003d0 ef 9e 81 be 42 03 1c 3f f6 56 db be ed d0 78 bf
       -0.2531657 0.6094247 -0.42839783 -0.97193795
0003e0 27 a2 2b 3c 91 d5 30 3f 5d 4e 92 be e4 ee 29 be
       0.010475672 0.69075876 -0.2857541 -0.16595036
0003f0 26 a8 a2 bd 92 e0 02 3f 0a dc 94 bf 61 b4 43 3e
       -0.07942228 0.5112392 -1.162965 0.19111778
