model/keypoint_classifier/keypoint_classifier.tflite (tflite, 7512 bytes, 6 tensors)

sequential/dense/BiasAdd/ReadVariableOp f4 [20]
000000 a7 25 11 be af be 11 3d bd 25 4e be e9 bb fd be
       -0.1417452 0.03558224 -0.20131584 -0.49557427
000010 62 47 36 bf 7a 86 64 3d e0 fa 06 3f f1 5a 12 bf
       -0.7120267 0.05579231 0.52726555 -0.57170016
000020 70 e3 9e be 97 f4 a7 bd 65 0b db 3e 03 46 35 bf
       -0.31032896 -0.08200949 0.4278213 -0.70809954
000030 4c 96 ab be 4d 91 64 bf 52 2e 53 bf 7b a9 8a bf
       -0.33513105 -0.8928421 -0.82492554 -1.0832971
000040 7a 44 d8 3e e6 05 ef be c2 03 32 3f 3b 39 2d 3e
       0.42239743 -0.46684188 0.69536984 0.16916363

sequential/dense_2/BiasAdd/ReadVariableOp f4 [26]
000000 4c ad ce be 9c d6 8c be 50 ae 21 bf 0d 6e 33 3f
       -0.4036659 -0.27507484 -0.63156605 0.700898
000010 7c a6 eb 3d 33 40 cf 3e 3b bb 36 3f 1a 85 93 3e
       0.11506364 0.40478668 0.7137944 0.28812486
000020 8d 10 33 3f 5f 0d a3 be c9 ed 03 be b2 1d 97 3e
       0.6994713 -0.3184614 -0.12883677 0.29514843
000030 5c 02 c6 3d 84 ad ed 3d 94 42 01 bf de d5 00 3c
       0.09668419 0.11605361 -0.50492215 0.00786349
000040 06 fe 36 bf 27 41 8e 3d b1 20 43 bd dc 80 a1 be
       -0.7148136 0.069460206 -0.0476386 -0.31543624
000050 87 46 2c 3e 7f 12 fd bd 78 c1 ba bd 60 d6 c8 3d
       0.16823779 -0.123570435 -0.091189325 0.09806514
000060 2f e5 8a 3d 30 fd 00 bf
       0.067819946 -0.50386333

sequential/dense_1/BiasAdd/ReadVariableOp f4 [10]
000000 f9 19 96 3e c6 21 2b 3f dc fc 62 be ee 86 0d 3f
       0.2931669 0.6684841 -0.2216677 0.5528401
000010 e4 b8 d7 be 20 0e c1 3e 59 48 ba 3e 19 94 77 3e
       -0.42133248 0.3770609 0.36383322 0.24177589
000020 5b 90 5c 3f 28 66 56 3f
       0.8615777 0.8374963

sequential/dense/MatMul f4 [20, 42]
000000 36 d4 83 be 10 d0 8b be 2f b6 8b 3e d0 5f 94 bf
       -0.25747842 -0.27307177 0.27287433 -1.159174
000010 de 00 6d bd d9 f7 fd be 56 7e c8 bc dc ae 11 bf
       -0.057862155 -0.49603155 -0.024474304 -0.5690744
000020 9e 95 3c be e2 3c 31 bf fc c8 52 be 75 e7 c8 be
       -0.1841645 -0.69233525 -0.20584482 -0.39239088
000030 bc b5 1f be 56 67 02 be 7f b0 32 be 0a 50 1e 3d
       -0.1559667 -0.12734732 -0.1745014 0.03865055
000040 fa 98 13 bd 9e b0 9d 3d ae fd 10 bd 61 e2 da bd
       -0.03603456 0.07699703 -0.035398178 -0.106877096
000050 1f 22 92 bd 5a 84 8f bd 43 71 19 3d 1f 6a 0d 3e
       -0.07135414 -0.07007666 0.03746153 0.13810013
000060 65 99 b8 3e 7a af 37 3d b9 00 c8 3d d7 1a be 3c
       0.3605453 0.044845082 0.09765763 0.023206158
000070 24 55 b7 bd 26 5e 02 3d 80 af d6 bc 9e 23 7f 3e
       -0.08951786 0.03182807 -0.026206732 0.2491593
000080 61 07 c0 3d 82 3f 91 3e 6c c2 7a bd fa c9 8c 3e
       0.093764074 0.28368765 -0.06122057 0.27497846
000090 5e fd ec bc 73 cf 88 3e 19 c3 42 bb 25 3e f7 3e
       -0.028929409 0.2672077 -0.0029718338 0.482896
0000a0 57 4b ac 3d 25 06 d6 3e d0 a1 96 3e 9e 9e 40 3e
       0.084128074 0.41801563 0.29420328 0.18810508
0000b0 e2 1d 23 3e fd 14 9f 3f 2d 85 45 bc 4e 84 21 3f
       0.15929368 1.242828 -0.012055677 0.63092506
0000c0 3b 6e 94 3d 93 ae 20 3f af 29 62 3d 97 81 12 3f
       0.07247587 0.6276638 0.055215534 0.5722899
0000d0 e8 be 3b bd 28 73 91 bd e6 c5 17 3d de 6e 79 bd
       -0.04583636 -0.071020424 0.037053965 -0.060896747
0000e0 f1 c6 94 bc 26 b6 17 bf 27 55 f7 bc 35 79 8d be
       -0.018161269 -0.5926231 -0.030191971 -0.27631536
0000f0 ba a7 ca bc 08 13 e4 bd 10 54 58 bb 35 39 ce 3d
       -0.024738181 -0.111364424 -0.003300909 0.10069505
000100 10 06 b0 bd 12 d9 d2 bc 05 3d c9 bc 32 78 96 bd
       -0.08594906 -0.025738273 -0.02456523 -0.07347144
000110 17 98 7d bd e1 12 f6 bd 66 36 24 3c a4 7c a6 3d
       -0.061912622 -0.120153196 0.010022735 0.08129242
000120 81 d5 d4 3d b0 af 78 bd 15 28 3b 3d ba 37 20 bf
       0.10392285 -0.060714424 0.045692522 -0.6258503
000130 a8 ce 48 bc e2 07 ef bd f0 15 a4 3a a5 82 22 3e
       -0.012256302 -0.116714254 0.0012518745 0.1587015
000140 6c c2 41 3d 8d d5 73 3d 88 4a 8b 3d 1c 1d a8 bd
       0.047304556 0.05952983 0.06801325 -0.08208677
000150 a8 5d 02 3d b0 e4 4a be fe e9 f6 3d 02 40 7e 3d
       0.0318276 -0.198138 0.12056349 0.06207276
000160 69 a6 3d 3d 43 1b 3b 3d 24 80 aa 3c 55 bb 12 3c
       0.04630128 0.045680296 0.020813055 0.008955796
000170 a0 d6 22 3d 1b b4 8a 3d 9f 73 12 3e e2 f0 68 bc
       0.039755464 0.06772634 0.14301918 -0.014217587
000180 4d 12 8b 3c 77 eb 40 3a 94 0b 8c bd 2e 3c 30 3d
       0.0169765 0.0007359306 -0.06838146 0.04302614
000190 f9 96 d8 bc 1f 9c 27 3d 48 1d 0f 3d d1 aa 80 3d
       -0.026439177 0.040920373 0.034940034 0.06282581
0001a0 8f 33 24 bd 09 96 a2 3d ca 22 8d 3c 44 eb 8a 3d
       -0.040088233 0.07938773 0.017228503 0.067831546
0001b0 ee b6 f7 bd 4e 9f 73 3c b2 8d 85 3c 52 15 1e 3e
       -0.12095438 0.014869524 0.016302917 0.1543782
0001c0 69 34 41 3c 6b da 04 3e eb 67 de 3d 11 95 0d 3e
       0.011792281 0.12973945 0.108596645 0.13826396
0001d0 a0 e4 36 bd d2 65 81 bd 43 84 dd 3c 37 08 85 3e
       -0.044651628 -0.06318249 0.027040606 0.2598283
0001e0 ae e0 02 3d 1f 11 39 3e a8 d7 bd bb ca a6 e5 3d
       0.031952552 0.18072937 -0.0057935305 0.11213453
0001f0 ad 35 20 bc 72 d2 d1 bf 2c 4f 4a 3e a0 b5 6a be
       -0.009778422 -1.6392348 0.19756764 -0.22920847
000200 da 15 29 bf f5 09 d2 be 6e 54 32 bf d1 17 60 3d
       -0.6604897 -0.41023222 -0.6966008 0.054710213
000210 4b 0d 33 bf 61 d3 fb bc 1d 05 27 bf 29 a3 62 be
       -0.6994216 -0.030740442 -0.6524218 -0.22132553
000220 55 7b cc 3e f9 7d b9 3d 3d 99 ef 3e 22 81 16 3c
       0.39937845 0.090572305 0.467966 0.009186061
000230 8e 64 c2 3c 41 e8 9e bd 69 5e e8 be 31 e2 9a bd
       0.023729589 -0.07759143 -0.4538453 -0.07562674
000240 0b e7 16 3f 98 e8 ab 3d 86 55 74 be 38 4c af 3c
       0.58946294 0.08393973 -0.2386075 0.021398649
000250 a6 b9 f1 be 8e 4c 06 3d a7 4e f6 be ae aa 3a bd
       -0.4721195 0.032787852 -0.48106882 -0.04557293
000260 b8 79 a2 3e fb d8 ed 3d 20 89 76 bd 69 55 c7 3d
       0.3173349 0.11613651 -0.060189366 0.097330876
000270 4f 49 8b be c3 c4 84 bb ea b4 90 be 7c 1d a8 bc
       -0.27204368 -0.004051776 -0.28263026 -0.020521872
000280 5b f1 ba 3d 5d 88 89 3b 51 02 0b be 52 0a 99 3d
       0.09128066 0.004197164 -0.13575102 0.074726716
000290 85 7c 84 be 80 5d 8a 3d d5 12 93 be 15 77 a2 3d
       -0.2587625 0.06756115 -0.28725305 0.07932869
0002a0 4c 0e 2f 3e 98 91 2e 3e 69 a5 18 3e c4 6a 3f 3e
       0.17095298 0.17047727 0.14906849 0.18693072
0002b0 bf aa 10 3d 7f a6 72 3b 27 c2 5f 3d 53 34 24 3d
       0.035319086 0.003702551 0.054628517 0.040088963
0002c0 a6 b9 b2 bd a2 b7 7e 3d 0f ee 1d be 18 f5 95 bd
       -0.08726816 0.062186845 -0.15422843 -0.073221385
0002d0 53 d7 0a bd 39 9d 47 3c 69 58 2f 3e f5 e4 3a 3e
       -0.033896755 0.012183481 0.1712357 0.18251403
0002e0 ab 54 fa bc 99 b6 23 3e e0 79 85 bd 37 6d d9 3c
       -0.030557951 0.15987624 -0.065173864 0.026541336
0002f0 2e 40 0f 3d c6 80 19 bd 5f 15 80 3d 99 74 48 3c
       0.034973316 -0.037476324 0.06254076 0.01223483
000300 35 7e 04 3d 2d 8c bc 3d 66 25 fe bc 02 b5 36 bc
       0.032346923 0.09206424 -0.031023692 -0.011151554
000310 6e ff 65 3d d0 46 07 be 1e 32 02 be 75 26 fb be
       0.0561518 -0.13210607 -0.1271443 -0.49052778
000320 09 44 88 bd f7 ac 84 bf 27 ad 85 bc 19 38 2e bd
       -0.06653602 -1.0365285 -0.016317917 -0.042533968
000330 63 61 d1 3c 98 34 9f bd 48 50 cf 3d bf 07 0b bf
       0.025559133 -0.07773703 0.10122734 -0.54308695
000340 18 3f 1a 3d 83 70 12 bf 98 e1 ae 3d d3 95 9d be
       0.037657827 -0.5720293 0.08539122 -0.3077837
000350 f4 7f b3 3d 8a ba 26 bf 19 fb b2 3d a9 70 10 bf
       0.087646395 -0.65128386 0.08739299 -0.56421906
000360 bd 32 91 bd c9 81 88 be 00 3c 0a 3e b1 34 fd bd
       -0.07089756 -0.26661518 0.1349945 -0.12363566
000370 4d 92 ab 3e 08 c7 d2 be 97 56 4c bd a1 60 e4 be
       0.33510056 -0.41167474 -0.049887266 -0.44604972
000380 f9 22 cf bd 91 04 d9 be 56 5d cf bc db 8a d0 bd
       -0.101140924 -0.42386296 -0.02531306 -0.101827346
000390 f8 82 a9 3e ae b3 8f be d9 b3 d7 bd 91 b2 16 bd
       0.33107734 -0.28066772 -0.1053235 -0.036791388
0003a0 ec 08 28 be 4d 17 94 3e 73 87 64 be 10 0f 00 3e
       -0.16409653 0.28924027 -0.22317295 0.12505746
0003b0 ca e3 af 3c bb df 7a be c4 64 1a 3e 2d 44 da 3d
       0.021470923 -0.24499409 0.15077502 0.10657535
0003c0 2c 91 fe 3c 91 b6 e8 3e 2f 29 be bd 28 de f8 3e
       0.031075083 0.45451787 -0.09285199 0.48606992
0003d0 3f 1b cc 3d 94 90 37 be df b6 8c 3d e9 87 90 3e
       0.09966134 -0.17926246 0.068708174 0.2822869
0003e0 62 c6 e9 3c 07 85 1a 3f 9f 3b f4 bd 7e ac fa 3e
       0.02853698 0.60359234 -0.11925434 0.48959726
0003f0 f0 bd 72 be 0c 7f 89 3e 5d cf 0f bd 19 5e f1 3d
       -0.23705268 0.26854742 -0.035109866 0.11785526

sequential/dense_1/MatMul f4 [10, 20]
000000 e5 d6 95 3e cc fb 33 3f ea 4e 26 bf 65 39 a7 3e
       0.29265514 0.70306087 -0.64964163 0.32660976
000010 4d 4b 46 3d 64 1b 06 3f 72 cb 96 be fd 46 70 3f
       0.048411656 0.52385545 -0.2945209 0.9385832
000020 13 2f 1c 3f 48 0a 61 3e e1 cb 82 be 74 f1 90 3e
       0.6100933 0.21976578 -0.25546172 0.28309214
000030 76 30 14 bf 73 49 9e 3d 45 2c 2e 3e 20 65 e8 3d
       -0.57886446 0.07728853 0.17009075 0.11347413
000040 1f 18 ef be 4e d2 6a 3f bd 82 f5 3e 42 12 09 3f
       -0.4669809 0.9172715 0.47951308 0.53543484
000050 1b 3d 1e 3e e5 05 ca bc 20 28 83 3f ee 0e 6d be
       0.15452997 -0.024661014 1.024662 -0.23150226
000060 54 4d 5b be 2b 7d 60 3e b7 bb 13 be cf 70 4b be
       -0.21416217 0.21922748 -0.14427076 -0.19867252
000070 03 71 15 3f 4b 25 d0 3e b3 6d f5 3e 5f e6 2b 3f
       0.5837557 0.40653452 0.47935256 0.67148393
000080 24 6c e0 3e 3f a0 8b bd d5 66 e2 be fe 8d a4 be
       0.43832505 -0.06817674 -0.4421908 -0.3213958
000090 c5 ca 4b 3f 44 9a f4 3e da 8e 07 3f 09 6a 4f 3f
       0.79606277 0.47773945 0.5295235 0.8102117
0000a0 c9 38 ae bc c2 e8 da 3e 9c 35 d4 3e dc 25 23 3f
       -0.021267312 0.42755705 0.4144715 0.63729644
0000b0 2b 4d 84 3e 02 df b0 bd ed 7a ce be a5 74 21 3d
       0.25840124 -0.08636285 -0.4032816 0.03941788
0000c0 6f 58 ca 3e d3 f6 c1 be 65 b3 06 be 79 ba 69 3f
       0.39520594 -0.37883624 -0.13154371 0.9130016
0000d0 c0 31 97 3d 20 b3 af 3c 0e 53 37 3a b4 2e 8f 3d
       0.07382536 0.021447718 0.0006993272 0.0699133
0000e0 38 e3 cc 3d 70 97 1e 3f 2d 93 fd be 41 62 97 be
       0.10004276 0.61949825 -0.4952635 -0.2956715
0000f0 e2 19 58 3f 58 b3 f7 bd 52 e4 4b 3e 68 d3 00 be
       0.84414494 -0.12094754 0.19911316 -0.12580645
000100 95 cd 7e 3e cc 69 37 3f 39 b7 5f 3e aa 88 65 3f
       0.24883111 0.7164581 0.21847238 0.8966166
000110 bf f6 41 be df 32 90 be a0 a5 1e 3d ae d5 31 3f
       -0.18941782 -0.28163812 0.03873217 0.69466674
000120 c1 ac c7 bf 75 33 8a 3e bb 65 14 3f 6a 42 b6 3e
       -1.5599595 0.26992384 0.5796773 0.35597545
000130 30 0e b8 be 71 93 fe be d0 fe ba 3e ed d2 c5 3e
       -0.35948324 -0.49721864 0.36522532 0.38637486
000140 6e c3 2e 3e ee 1c 45 3e 12 63 48 3f 70 17 3c 3f
       0.17066738 0.19249317 0.7827617 0.7347326
000150 1f db 65 3e db 16 3f 3d 9b ee 00 3f 14 f5 b5 3e
       0.2244687 0.046652656 0.50364083 0.35538542
000160 13 f4 3a 3f 62 5f 3a 3f 5a bd c1 3e f5 30 dc 3d
       0.7302868 0.7280179 0.37839776 0.10751525
000170 23 af ca bd fb e6 a7 3e a9 97 91 3e 85 9a 0d 3e
       -0.09896686 0.32793412 0.2843602 0.13828476
000180 5b c7 f4 3d 9c 53 c7 bd 5a f9 5a 3f 40 41 e7 3e
       0.119520865 -0.09732744 0.8553673 0.4516697
000190 4c eb 26 3f 1d 17 85 be 43 47 d2 be 44 93 68 3e
       0.65202785 -0.25994197 -0.41069993 0.22712427
0001a0 94 43 4b 3e 5b 20 a2 3e 8d f5 32 be a7 b3 78 bd
       0.19849998 0.3166531 -0.17476483 -0.060718205
0001b0 93 e2 81 3e 0e 43 96 3e f3 31 78 3e 83 9b 66 bd
       0.25368175 0.29348034 0.24237804 -0.05630065
0001c0 78 62 dd 3f 6d 04 2a 3e d4 1a 05 3c a9 94 2a 3f
       1.7295675 0.16603251 0.008124072 0.6663309
0001d0 ee a6 98 3f a3 73 17 3f 7e ec 3a 3e c5 f4 98 3d
       1.1925943 0.5916082 0.18254277 0.07468561
0001e0 8e 75 88 3d 6d b2 47 3e f6 46 53 bf c1 0d bf 3e
       0.06663047 0.19501658 -0.8253015 0.3731518
0001f0 f2 d9 10 bf ed 5f ce 3e d3 70 69 3f 21 0e 2a 3e
       -0.5658256 0.4030756 0.9118778 0.16606952
000200 b6 72 3b be 51 90 70 3e 6b cd 04 3f 86 2b 2a bf
       -0.18305477 0.23492552 0.5187594 -0.6647266
000210 75 08 25 3f 69 6c 22 bf 26 40 e1 be 8e ab 0d bd
       0.6446603 -0.6344667 -0.43994254 -0.034587435
000220 89 0a e9 3e 5d e0 24 3f f1 47 6c 3f 96 7e 77 3f
       0.4551585 0.6440485 0.92297274 0.9667753
000230 df 15 28 3e 4b 24 43 3e 63 fb ae 3f bb b7 91 bd
       0.16414593 0.19056813 1.3670467 -0.07115122
000240 db 05 69 3f 8d 6e 2e 3e 04 f7 bd be f4 9d 29 3f
       0.9102456 0.1703436 -0.3710252 0.6625664
000250 ea 1f a1 3e cf ac 3c bd 56 c2 8d bd 77 f9 3b 3f
       0.3146966 -0.04606324 -0.06921832 0.7342753
000260 55 15 21 3e 4b e3 82 3f eb ac 75 3f 9c 62 4b 3f
       0.15730794 1.0225614 0.95966977 0.7944734
000270 c0 72 77 bc ab df 0d be 8d 9a 07 bf 2d 5f 9b bd
       -0.015103042 -0.13854854 -0.529702 -0.07586513
000280 e3 bd 36 3f 3f e0 ff be f0 5f 46 be 5c 34 24 3f
       0.71383494 -0.49975774 -0.19372535 0.64142394
000290 5c 47 6f be 4a dd 24 3f 5b 54 cb be 1e 03 9f 3e
       -0.23367065 0.6440016 -0.39712796 0.31057066
0002a0 19 17 36 3f 16 bc be 3e 82 52 fd 3c e1 3c cf 3e
       0.71128994 0.37252873 0.030923132 0.40476134
0002b0 62 a0 70 bf 0d cb 60 3e 64 94 01 3f a3 9d e0 3d
       -0.93994725 0.21952458 0.5061705 0.10967567
0002c0 a2 32 25 3e b6 a8 d3 3e d9 a3 eb be d5 0b 7d bf
       0.16132596 0.41339654 -0.46023443 -0.9884618
0002d0 64 b9 6c be 34 9b 8b 3f dc 29 b5 3e 45 27 0a be
       -0.23117596 1.0906739 0.353835 -0.13491543
0002e0 a3 d2 a0 3e 9b 91 13 3e 28 5d 7c bf 0b 7f 2a 3f
       0.31410703 0.14411013 -0.98579645 0.666001
0002f0 be 65 97 be d8 e5 3f bf de c9 4b bf 46 38 8d be
       -0.2956981 -0.7496009 -0.796049 -0.27581996
000300 00 c7 c2 3f 77 12 59 3e f7 0d 5e be 1c 08 ec 3e
       1.521698 0.2119845 -0.21685015 0.46099937
000310 cd f0 2a 3f e9 1c b9 3f 85 07 4e bf e2 77 30 bf
       0.6677368 1.4461948 -0.80480224 -0.68932927

sequential/dense_2/MatMul f4 [26, 10]
000000 dd 1d 9b 3e 2b 7d a9 be d2 bc 4d 3e 02 c9 72 3e
       0.3029622 -0.33103308 0.2009156 0.23709491
000010 97 ea e1 3e 29 2f 3a be 78 a8 80 bf f1 9a 26 3e
       0.4412429 -0.18182053 -1.0051413 0.16270043
000020 fc cc 58 3e 6a 96 ef be f0 14 45 bf 49 67 08 3e
       0.21171945 -0.46794444 -0.76985073 0.1332065
000030 7b c3 e9 3e 41 ad 31 bf 29 bd ca be 46 22 ab bd
       0.45656952 -0.6940499 -0.39597443 -0.083561465
000040 d9 ff 19 bf 44 85 c0 3e d7 0f d1 be e0 07 42 3f
       -0.6015602 0.37601674 -0.40832397 0.75793266
000050 c7 00 bb be 57 37 aa be d4 6e 42 3f 76 90 5a bf
       -0.3652403 -0.33245346 0.7595036 -0.8537668
000060 fe 31 33 3f ac 9e 26 be fa 8f 7f be 3e 5d b5 3e
       0.6999816 -0.16271466 -0.24957266 0.354227
000070 ca b1 e8 bd 7b 50 fb 3e 1c eb 47 3e 8a cd c5 bd
       -0.113620356 0.4908484 0.19523281 -0.09658344
000080 f4 e0 1f be 2d c7 f6 bd 0f e2 65 bf 6e 0d ff be
       -0.15613157 -0.120497085 -0.89798063 -0.49814934
000090 b9 ab 97 bd 0b 3d 71 be 8c 38 03 3e fb 89 0d 3f
       -0.074058 -0.23558442 0.1281454 0.55288666
0000a0 12 17 5f 3e 68 3c 93 be 2f 5a 26 bf 4f 82 81 3e
       0.21786144 -0.28757024 -0.6498136 0.2529473
0000b0 ed 8c fa be e1 b1 68 be 25 b3 b7 be 59 84 01 3f
       -0.48935643 -0.22724105 -0.35878864 0.5059257
0000c0 a8 0a d7 be fd 84 2a 3d 32 eb 82 bf ce bf 0e 3e
       -0.42000318 0.041630734 -1.0228026 0.13940355
0000d0 48 6b 44 3c 6e 24 23 bf a0 af ce bd 59 27 f4 bb
       0.0119884685 -0.6372746 -0.100920916 -0.0074509797
0000e0 30 50 1f bf 3c 37 11 3f 09 2e 56 bf 8a 12 0a 3f
       -0.6223173 0.56724906 -0.83663994 0.5393454
0000f0 59 57 40 be 19 40 03 3f 0c 80 76 be 0e 35 58 be
       -0.1878332 0.5126968 -0.24072284 -0.21113989
000100 ef ba 9f be b2 7f a5 3e 3a aa 95 3d 7a ec b4 bf
       -0.31197307 0.32323986 0.07307859 -1.4134667
000110 94 39 30 3f d0 b1 7a bf 6d f4 81 be 02 b9 18 3e
       0.6883786 -0.9792757 -0.25381795 0.14914325
000120 5f 8a 12 be 8b f7 22 bf 83 35 78 3e 9c 38 da 3e
       -0.14310597 -0.6365897 0.24239163 0.42621315
000130 e9 d4 71 3e 8b fd df bf 64 13 ef 3e c9 db 67 bf
       0.23616375 -1.749925 0.4669448 -0.9056974
000140 87 ad 43 bf f4 65 f2 3c 69 13 59 be 03 38 00 3f
       -0.76436657 0.02958963 -0.2119881 0.5008547
000150 fa 99 2d be e7 b5 bb bf 09 a8 14 bf 16 14 1b 3f
       -0.16953269 -1.4664887 -0.580689 0.60577524
000160 26 b4 63 3d 64 a0 1e 3e f8 f4 c1 be 40 91 c0 3e
       0.055591725 0.15490872 -0.3788221 0.37610817
000170 62 68 a6 3d 1c 51 91 3e 53 9b f5 3e 66 73 3e 3e
       0.08125378 0.28382194 0.47970065 0.18598709
000180 4a 54 7e 3e 10 9e fa 3d 2a ef e7 bd ee 2a 36 bf
       0.24836841 0.12237179 -0.11324914 -0.71159256
000190 b8 bd 36 3e 95 26 a1 3e cf 5c e3 be 31 42 b9 be
       0.1784581 0.31474748 -0.44406745 -0.36183313
0001a0 41 e1 8d bf e9 44 36 3f 58 78 a7 be 24 86 db bc
       -1.1084367 0.711989 -0.32709002 -0.026797362
0001b0 fd 42 2d be 78 71 74 3d 2d ab 86 3e fc 55 04 3f
       -0.16920085 0.059678525 0.26302472 0.516937
0001c0 be a1 21 3f e9 52 b6 bd a3 04 01 bf 36 b1 e4 be
       0.63137424 -0.089025326 -0.503977 -0.4466645
0001d0 7f 4f 07 bf 03 9b dc be b5 2b eb 3e 5c 07 00 3e
       -0.52855676 -0.43087015 0.45931783 0.12502807
0001e0 85 b4 8f 3e da 29 89 be f6 f1 48 bf 28 d1 de 3e
       0.28067413 -0.26789743 -0.78494203 0.4351895
0001f0 cf 8c 3e be 9b f9 15 3d 60 93 a6 bc eb f4 bf 3e
       -0.18608402 0.036614995 -0.020333946 0.37491545
000200 e7 67 a5 be ce 77 e5 be c6 b4 06 be a8 2b 3a bf
       -0.32305834 -0.44817966 -0.13154897 -0.72722864
000210 c4 36 27 bf 5c bc b0 3e d2 c2 e6 bd 49 ba 2d be
       -0.6531794 0.34518707 -0.11267628 -0.16965593
000220 e5 bc c3 be 41 a8 b4 3d 93 0b 14 3f b4 5d 58 be
       -0.38230053 0.088211544 0.5783016 -0.21129495
000230 52 63 7b be 84 70 84 be 68 94 3d 3e 9a c9 82 be
       -0.24549606 -0.25867093 0.18513644 -0.25544435
000240 00 a3 56 3f c6 a3 6d 3d 01 ac bf be ea 00 86 3e
       0.8384247 0.058017515 -0.37435916 0.26172572
000250 fc d0 8a bd 3e 2c c5 3d 26 10 ac 3e ee a5 56 3e
       -0.06778142 0.09627579 0.3360607 0.20961735
000260 e2 d1 52 be f8 ad a4 be 50 2b a7 3e e9 af 42 3d
       -0.20587876 -0.32163978 0.32650232 0.047531042
000270 91 7d bb 3e 4f 7d 2c bf 68 b7 26 be a6 53 a1 bd
       0.36619237 -0.67378706 -0.16280901 -0.07877283
000280 21 4b 26 3e ef 80 f1 3e 8f 98 bd be a1 f4 09 bf
       0.16239597 0.4716868 -0.37030455 -0.538889
000290 af 5d d0 3e b3 b3 e1 be 35 8f 2e 3f 53 55 22 bf
       0.40696475 -0.44082412 0.68187267 -0.63411444
0002a0 ad 40 13 bf 6c 29 fd be ed 64 a1 be b9 82 27 be
       -0.5752056 -0.49445665 -0.31522313 -0.1635846
0002b0 19 24 b1 be 74 cf 7c bd 58 bf 20 bf a7 20 cf 3e
       -0.34597853 -0.06172128 -0.6279197 0.404546
0002c0 2e 54 dd bb 58 e4 cb be 11 9d ae be f6 90 24 3f
       -0.0067544198 -0.3982265 -0.34104207 0.6428369
0002d0 df 1d b4 3c 5d 5b 11 bf 89 d4 6e bc cd 79 18 3f
       0.0219869 -0.56780034 -0.0145770395 0.59560853
0002e0 02 f0 cb bd e7 f4 28 be ba ed 51 bf a8 f8 0b 3e
       -0.09957887 -0.16499673 -0.82003367 0.13669074
0002f0 92 ba e0 3d 63 c7 2e be af ae 4c 3e a3 80 00 bf
       0.109730855 -0.17068247 0.19988512 -0.50196284
000300 64 12 61 3e ae a5 00 3f 23 35 8f be fe 1f 97 3c
       0.21979672 0.5025281 -0.27970228 0.018447872
000310 54 d6 0b bf f8 6a d0 3d 7d ea fd 3d f5 c6 12 bf
       -0.54623914 0.10176653 0.12398241 -0.57334834
000320 b3 c8 e6 be bd b5 73 be 9b dc 21 bf ad de 29 be
       -0.45074996 -0.23799796 -0.6322724 -0.1658885
000330 7b ce 80 bf 13 89 85 3e 67 63 8c 3e c3 9b 62 be
       -1.0063013 0.26081142 0.27419588 -0.22129731
000340 24 19 63 be 5c 75 2f 3f da ea d3 be e9 b5 13 be
       -0.22177559 0.6853845 -0.41390115 -0.14424862
000350 d6 a0 c6 be 92 ab af bd 45 0b 01 3e ca 38 9c 3e
       -0.38794583 -0.08577646 0.12601955 0.30512077
000360 b5 71 21 3f 8f 06 89 be 0e 93 9c be 4d db 00 3f
       0.6306413 -0.26762816 -0.30580944 0.50334626
000370 c8 97 ec be ad 53 a0 be 7a 36 b6 3e fe 71 cf be
       -0.4620955 -0.3131384 0.35588437 -0.40516657
000380 de c8 49 bf b3 c8 5d 3e 3a 86 d0 bd cc 83 f7 3c
       -0.78822124 0.21658592 -0.10181852 0.030214213
000390 67 d9 06 bf d0 0d 42 3f 98 27 01 3f 91 39 21 bf
       -0.5267548 0.75802326 0.5045104 -0.62978464
0003a0 97 fb 38 3e e9 17 0c be 94 13 60 be 99 42 88 bd
       0.18064724 -0.13680996 -0.21882468 -0.066533275
0003b0 68 af 39 be 24 fd ec be 39 df 24 3f aa fa 04 3d
       -0.18133318 -0.4628688 0.6440311 0.032465614
0003c0 ba 43 01 bf cb a2 5e 3e c5 4d 13 3e 52 b5 cb 3e
       -0.5049397 0.21741788 0.14385135 0.39786774
0003d0 eb 2e b2 3e 49 07 54 bf 20 92 23 bf d2 d9 f7 3e
       0.3480142 -0.82823616 -0.63894844 0.4840837
0003e0 52 0c 90 3e ed 6d 74 bf 29 c1 47 3f e4 56 90 3d
       0.281344 -0.95480233 0.78029114 0.07047823
0003f0 07 9e a2 bd 01 3e 52 3d 2d eb 51 3e 11 a6 1c bf
       -0.079402976 0.051328663 0.20499869 -0.611909
